Convolutional_Autoencoders/trained_models/CNN_Tiny_Autoencoder.pth (torch, 24830 bytes, 17 tensors)

encoder.0.weight f4 [8, 1, 3, 3]
-0.07035016 -0.11914437 0.28228384 -0.19884929 -0.012072459 -0.3998655 -0.19418009 0.08554797
-0.39107865 0.11329866 0.2881495 0.28521875 0.13121271 0.6047572 0.19307123 0.1555793
0.30792105 0.1361312 0.19293694 0.40025297 0.33516666 0.3607802 0.35098374 0.3481973
0.13501325 0.13310614 0.20779823 0.056999516 0.023106655 0.017401645 -0.28597313 0.19973332
-0.057136927 0.02984095 0.0026607688 0.018367628 -0.046609968 0.47916344 0.4112608 -0.6881512
-0.3127852 -0.15093541 -0.15275584 -0.3518161 -0.5133196 -0.058172457 -0.1488645 0.17231177
0.30089262 0.3703697 0.17417568 -0.43449476 -0.6453307 -0.17159714 0.3093152 -0.018703168
-0.2297353 -0.025937779 -0.36397764 -0.09170986 0.12774001 -0.22977914 0.012882393 -0.35967723
-0.07112728 -0.18454275 -0.20191222 -0.121921405 -0.2437717 0.33527532 0.031147799 -0.04773529
00000000: bf13 90bd f701 f4bd 8287 903e 269f 4bbe
00000010: 90cb 45bc 2cbb ccbe 25d7 46be c633 af3d
00000020: 763b c8be 2109 e83d 5588 933e 3108 923e
00000030: a05c 063e 5ed1 1a3f 77b4 453e 2e50 1f3e
00000040: d4a7 9d3e fa65 0b3e 4391 453e f5ed cc3e
00000050: f79a ab3e 2fb8 b83e 24b4 b33e eb46 b23e
00000060: ea40 0a3e fa4c 083e 0fc9 543e 5378 693d
00000070: 2b4a bd3c e58d 8e3c 126b 92be e486 4c3e
00000080: 6908 6abd 0275 f43c 4b60 2e3b b577 963c
00000090: 18ea 3ebd e954 f53e c790 d23e ad2a 30bf
000000a0: 6225 a0be d08e 1abe 076c 1cbe 3d21 b4be
000000b0: ea68 03bf 3e46 6ebd ef6f 18be 7f72 303e
000000c0: 990e 9a3e 19a1 bd3e 1c5b 323e 1976 debe
000000d0: 6534 25bf 29b7 2fbe 905e 9e3e 6337 99bc
000000e0: bb3f 6bbe 777b d4bc 475b babe 61d2 bbbd
000000f0: 47ce 023e 394b 6bbe ac10 533c 9d27 b8be
00000100: 2eab 91bd c6f8 3cbe 14c2 4ebe eeb1 f9bd
00000110: 4a9f 79be 35a9 ab3e ab29 ff3c 1486 43bd

encoder.0.bias f4 [8]
0.4897732 0.0016700448 0.15715197 -0.33948722 0.3412356 0.33641607 0.5059113 0.30850434
00000000: 8ec3 fa3e 68e5 da3a 72ec 203e 45d1 adbe
00000010: 6fb6 ae3e ba3e ac3e 6783 013f 48f4 9d3e

encoder.2.weight f4 [8, 8, 3, 3]
0.06448073 0.08221576 0.10321664 0.057184447 0.13139041 -0.053594828 0.22342132 0.40133438
0.07145662 0.040812954 -0.31332 -0.0146618 0.05165602 -0.018793706 0.3508128 -0.018820511
0.05833758 0.36763635 0.08480543 0.040228724 0.22421288 0.23058088 0.10745746 0.17570773
0.073052876 0.28251967 0.3192703 0.08237527 0.025945239 -0.11839372 0.11309732 0.06143632
0.07571546 0.05521463 -0.02022671 -0.07137303 -0.08897947 0.1367244 0.029762166 0.251158
0.3399419 -0.07798003 0.16335823 0.06724874 0.05809265 0.097495764 0.2988418 0.09168246
0.28389728 0.055691335 0.18160383 0.15135336 0.08330408 0.07491261 0.17028385 0.16234446
0.07179527 0.19655979 0.2633703 -0.031159474 0.066117436 0.155251 -0.19106045 0.09356869
0.23449373 0.052831624 -0.0898586 0.3404453 0.1804764 -0.051987678 0.20296632 -0.30314195
0.27637583 0.133797 0.06969134 0.474438 0.08067463 0.286547 0.006992023 0.10086506
-0.032467775 -0.10353709 -0.31990895 -0.0026330191 -0.4092889 -0.52538896 -0.53449494 0.15267466
-0.10813356 -0.2154443 0.19484574 -0.09437334 0.076511644 -0.3455303 -0.058288362 -0.425644
0.03695811 0.16988842 -0.008064561 0.034839734 -0.11024799 -0.0026605737 -0.097218774 -0.071933895
0.108841754 0.061746888 -0.03605011 0.037617557 0.086701125 0.32483897 0.0587416 0.7404667
0.31145108 0.34189147 0.24196678 0.15719321 0.2460714 0.20450173 0.17269668 0.13494265
-0.07532392 0.17960356 0.055818465 -0.0022293024 0.35282716 0.202182 0.41941857 0.12097326
0.13082327 0.043143846 0.056757595 0.30034244 -0.065510616 0.08044532 -0.061082557 0.04398897
0.46203965 0.04492026 0.38532773 0.42323238 0.41661403 0.47964475 0.32297683 0.34377757
0.10568009 0.1629831 0.091307156 -0.072259046 0.12142996 0.25634244 0.03595563 0.2819148
0.0069456925 -0.0724092 -0.1037887 0.37502715 0.11916205 0.008238295 -0.18919507 0.03180671
-0.20887952 -0.26044756 -0.07749494 0.22978833 0.2877102 0.18023248 0.15498698 -0.027314333
0.024493579 -0.041726965 -0.11696969 0.074841075 0.05103544 0.100486 -0.007890269 0.0265689
-0.037702747 -0.09676702 -0.08211451 0.08661719 -0.041579112 0.037356127 0.16635795 0.019844841
0.09327004 0.26231954 -0.001949008 0.10807145 -0.10046333 0.115598395 0.1230335 0.223998
0.09228111 0.27052212 0.38277653 -0.18298878 0.1696342 -0.1704554 0.25759122 0.029421333
0.071908526 0.29111525 0.18767308 0.22740558 0.08189641 0.2648186 0.17483874 0.06333869
0.14736338 -0.09175865 -0.025786394 0.1653695 0.24045543 -0.058059625 0.32611746 0.02203808
0.51679784 -0.011939048 0.13153175 0.16775627 0.058238298 0.10176232 0.22354867 0.21847086
0.23387969 -0.61500543 -0.6056489 -0.48784897 0.044162083 0.23908998 -0.34509587 -0.32964075
0.0055846036 -1.0185549 -0.43421316 -0.1406464 -0.43317166 -0.14006081 0.034664717 -0.31051672
-0.22730364 0.3013015 -0.6228398 0.046374332 0.11287343 -0.033484764 0.004136391 0.034418575
-0.09886198 -0.098715045 0.060143672 -0.011315103 0.5485327 -0.076570585 -0.022292752 0.40517
00000000: 790e 843d bd60 a83d 3f63 d33d 3d3a 6a3d
00000010: 358b 063e 4086 5bbd 8fc8 643e b37b cd3e
00000020: d957 923d 7c2b 273d 7b6b a0be 0c38 70bc
00000030: 4395 533d 42f5 99bc bc9d b33e 792d 9abc
00000040: 63f3 6e3d d53a bc3e 78ae ad3d e0c6 243d
00000050: 1098 653e 651d 6c3e a812 dc3d baec 333e
00000060: bf9c 953d 6ba6 903e 6677 a33e 5eb4 a83d
00000070: 1c8b d43c 6878 f2bd 919f e73d a7a4 7b3d
00000080: b510 9b3d bc28 623d 7cb2 a5bc 062c 92bd
00000090: de3a b6bd 7b01 0c3e c9cf f33c c897 803e
000000a0: dd0c ae3e feb3 9fbd 6147 273e b5b9 893d
000000b0: 8ff2 6d3d dcab c73d cb01 993e 03c4 bb3d
000000c0: fc5a 913e 991c 643d 5bf6 393e 60fc 1a3e
000000d0: 549b aa3d c86b 993d e45e 2e3e a03d 263e
000000e0: 6609 933d f846 493e 79d8 863e 2742 ffbc
000000f0: 9468 873d 1efa 1e3e 5aa5 43be f1a0 bf3d
00000100: 201f 703e f965 583d c907 b8bd d94e ae3e
00000110: cece 383e 08f1 54bd 67d6 4f3e 6c35 9bbe
00000120: 2281 8d3e 1502 093e 55ba 8e3d 8ae9 f23e
00000130: be38 a53d 4ab6 923e 571d e53b 5792 ce3d
00000140: eefc 04bd 410b d4bd 1bcb a3be bb8e 2cbb
00000150: 518e d1be e47f 06bf a9d4 08bf bf56 1c3e
00000160: 2175 ddbd 6e9d 5cbe a485 473e cf46 c1bd
00000170: 23b2 9c3d 59e9 b0be c7bf 6ebd 03ee d9be
00000180: 6361 173d 3bf7 2d3e 3821 04bc 1cb4 0e3d
00000190: b3c9 e1bd 055d 2ebb a31a c7bd 1452 93bd
000001a0: 6de8 de3d 4eea 7c3d 48a9 13bd de14 1a3d
000001b0: 5c90 b13d 4b51 a63e 089b 703d 3a8f 3d3f
000001c0: 8476 9f3e 660c af3e 24c6 773e 42f7 203e
000001d0: 24fa 7b3e e768 513e 66d7 303e 682e 0a3e
000001e0: 6d43 9abd ffe9 373e e7a1 643d 7d19 12bb
000001f0: c3a5 b43e cc08 4f3e 08be d63e d4c0 f73d
00000200: 89f6 053e 9ab7 303d a77a 683d 7cc6 993e
00000210: 6e2a 86bd 84c0 a43d b431 7abd c72d 343d
00000220: 7690 ec3e 4efe 373d ad49 c53e eab1 d83e
00000230: 6f4e d53e ff93 f53e 385d a53e 9d03 b03e
00000240: ce6e d83d 0be5 263e 3fff ba3d 8dfc 93bd
00000250: 45b0 f83d 513f 833e 3646 133d 2357 903e
00000260: b198 e33b 464b 94bd 2c8f d4bd 8f03 c03e
00000270: 3c0b f43d eaf9 063c 5abc 41be c147 023d
00000280: 83e4 55be 6259 85be abb5 9ebd a24d 6b3e
00000290: c04e 933e dd8e 383e e8b4 1e3e 4fc2 dfbc
000002a0: c2a6 c83c e5e9 2abd ce8d efbd 4746 993d
000002b0: 8a0a 513d 9bcb cd3d 3046 01bc 06a7 d93c
000002c0: 326e 1abd ca2d c6bd a72b a8bd 5a64 b13d
000002d0: dc4e 2abd bd02 193d bd59 2a3e a691 a23c
000002e0: 5d04 bf3d bf4e 863e db75 ffba 9054 dd3d
000002f0: b8bf cdbd dabe ec3d fdf8 fb3d bb5f 653e
00000300: e1fd bc3d e081 8a3e 49fb c33e 6961 3bbe
00000310: 96b4 2d3e dc8b 2ebe ffe2 833e 0205 f13c
00000320: c744 933d 0f0d 953e 5f2d 403e 02dd 683e
00000330: 4eb9 a73d 4e96 873e ed08 333e b7b7 813d
00000340: 6de6 163e f6eb bbbd fd3d d3bc 9f56 293e
00000350: f339 763e eecf 6dbd def8 a63e 3489 b43c
00000360: dd4c 043f ff9b 43bc 42b0 063e 4dc8 2b3e
00000370: 488b 6e3d c368 d03d f1e9 643e d3b6 5f3e
00000380: 287e 6f3e ff70 1dbf ce0b 1bbf 57c7 f9be
00000390: 4de3 343d 01d4 743e 68b0 b0be acc6 a8be
000003a0: 0dff b63b 0260 82bf 3051 debe 9c05 10be
000003b0: adc8 ddbe 1a6c 0fbe 97fc 0d3d 0cfc 9ebe
000003c0: 49c2 68be 3144 9a3e 6e72 1fbf 03f3 3d3d
000003d0: 2f2a e73d 5227 09bd 908a 873b 7efa 0c3d
000003e0: 2678 cabd 1d2b cabd 3659 763d fb62 39bc
000003f0: a46c 0c3f 0ad1 9cbd 4a9f b6bc 7172 cf3e

encoder.2.bias f4 [8]
0.049986277 0.00500835 0.17263849 -0.06555185 -0.16028492 0.16483736 0.30939728 -0.10907828
00000000: 69be 4c3d 161d a43b 25c8 303e 0c40 86bd
00000010: bb21 24be 20cb 283e 5269 9e3e 6f64 dfbd

encoder.4.weight f4 [8, 8, 3, 3]
0.24529783 0.12325222 0.75725603 0.036424987 -0.071801424 -0.063602775 0.45732635 0.07574123
-0.46542567 0.16051306 0.05934146 0.33968717 0.08597954 0.024918169 -0.025978588 0.20095763
0.104084626 -0.41281715 0.26682314 0.38363442 1.0554156 -0.038932543 0.037238397 -0.40610662
-0.0014330235 -0.06650436 0.52265894 0.20476615 -0.12724426 0.20358962 0.8114943 0.2857533
0.09992792 0.5203329 0.2538041 0.260272 0.07671457 0.0191466 0.11751079 0.112933695
0.008136814 0.080719836 0.061135627 0.08146442 0.058827527 0.18123296 -0.033897683 0.21436474
-0.25183183 0.0885506 -0.5562995 0.079885244 0.09230364 0.15884493 -0.7055159 -0.619543
-0.7003043 -0.48639438 -1.614385 -0.36242932 -0.5132584 -0.6283067 0.06956538 -0.012013269
-0.04447955 -0.074546814 0.09174858 0.097476035 -0.0882033 -0.027703399 -0.05714042 0.087460384
-0.23077016 0.1966335 0.35283232 0.26947728 0.22623134 0.11449283 0.13286188 0.26298782
0.49678716 -0.7570291 0.41340408 -0.10448045 -0.2070148 0.19796841 0.44609055 -0.19445373
0.01792323 -0.17484823 -0.13670723 0.27918774 -0.036906097 -0.101256385 0.1956397 0.2783342
-0.16530721 0.25943875 -0.48729354 -0.35822162 0.74685353 -0.062735796 -0.31102487 0.09696072
0.4389368 -0.0681464 0.3259198 0.4127794 -0.0723321 -0.106265694 0.105985135 -0.09777365
0.10815638 0.032057635 -0.09357044 -0.03106724 0.048130624 -0.10136493 0.12993689 -0.02194058
-0.34133565 0.33898115 0.09922518 0.15653892 0.0016511931 0.39180398 -0.011183342 -0.988395
-0.27045533 0.24797747 -0.77708393 -1.0031818 0.03538055 -0.22683756 -0.30122077 0.030775856
-0.070055455 0.0056953137 0.08749694 0.039919745 0.013085889 0.07100541 -0.082834676 -0.01779343
-0.34911224 0.3448769 0.22079083 0.27195275 0.25948995 0.30231786 0.025118751 0.1848231
-0.029766347 -0.96774316 0.14471547 0.4200883 0.08180466 0.1538743 0.004285181 0.20693286
0.0039006548 0.063697755 -0.2660476 0.5922491 0.24015619 0.08477934 0.26556465 -0.08942171
0.13607365 0.05242322 0.3694712 -0.6192487 -0.018968875 0.50169927 0.16512749 0.46360898
-0.0431277 0.2278907 0.16093239 0.009761228 -0.0061603817 -0.07783755 -0.04036042 0.111609995
-0.041017585 0.061030023 0.047712635 -0.028857397 0.05837259 -0.6686623 0.3655483 0.3501415
0.025700418 0.26851237 -0.08965592 0.30009842 0.1758789 -0.3003209 0.001010985 -0.40370533
-0.6763742 -0.1764578 -0.64134526 -1.2080002 -0.47395092 -0.5751897 0.09176281 -0.07656426
-0.06613852 0.0035331354 0.0044058277 -0.10654185 -0.09230556 -0.09359441 -0.04958161 0.07419153
0.22293185 0.44852498 0.77379936 0.20999806 0.34786358 0.022178793 0.23280053 0.36323324
0.3294056 -0.006179037 0.1341777 -0.49517003 0.37998912 0.2510586 -0.27314216 -0.019109553
0.2862465 -0.54271406 0.18883333 0.17606935 0.58901775 0.07871926 -0.031446755 -0.3621048
0.13645062 0.4776699 0.27305716 -0.08923903 -0.027655102 -0.014384407 0.29467943 0.55565065
-0.20356949 0.23411363 0.26753116 -0.71528876 -0.019777663 -0.10818898 0.019408738 0.09856764
00000000: 5b2f 7b3e a96b fc3d 88db 413f 5e32 153d
00000010: a00c 93bd 2c42 82bd ae26 ea3e 381e 9b3d
00000020: 464c eebe 895d 243e 0810 733d 7aeb ad3e
00000030: 0b16 b03d 3021 cc3c 0cd1 d4bc d6c7 4d3e
00000040: 522a d53d c55c d3be 0b9d 883e bb6b c43e
00000050: dc17 873f bb77 1fbd 4a87 183d 35ed cfbe
00000060: 4ad4 bbba 7033 88bd facc 053f 38ae 513e
00000070: 524c 02be cc79 503e 17be 4f3f 424e 923e
00000080: 02a7 cc3d 8934 053f 9cf2 813e 5f42 853e
00000090: 871c 9d3d 55d9 9c3c 7fa9 f03d c849 e73d
000000a0: 4650 053c 7150 a53d 5a69 7a3d d1d6 a63d
000000b0: 22f5 703d 2295 393e 4cd8 0abd 6e82 5b3e
000000c0: 1af0 80be 045a b53d a569 0ebf e09a a33d
000000d0: b109 bd3d 3fa8 223e b19c 34bf 5f9a 1ebf
000000e0: 2547 33bf af08 f9be 2ba4 cebf 5690 b9be
000000f0: e764 03bf b5d8 20bf 4b78 8e3d 4dd3 44bc
00000100: 3030 36bd 00ac 98bd aee6 bb3d 84a1 c73d
00000110: efa3 b4bd 3df2 e2bc 130c 6abd 6e1e b33d
00000120: 034f 6cbe 4b5a 493e 70a6 b43e edf8 893e
00000130: 30a9 673e 387b ea3d f20c 083e 57a6 863e
00000140: e35a fe3e a9cc 41bf b3a9 d33e d9f9 d5bd
00000150: b0fb 53be 3bb8 4a3e fb65 e43e e11e 47be
00000160: bdd3 923c 6a0b 33be fbfc 0bbe b2f1 8e3e
00000170: d92a 17bd 825f cfbd c655 483e d281 8e3e
00000180: 4b46 29be 28d5 843e 8a7e f9be d368 b7be
00000190: cb31 3f3f a07b 80bd a73e 9fbe 5893 c63d
000001a0: 53bc e03e 5790 8bbd f6de a63e d257 d33e
000001b0: da22 94bd d4a1 d9bd bc0e d93d 8d3d c8bd
000001c0: 1881 dd3d de4e 033d dca1 bfbd b980 febc
000001d0: 9e24 453d 6b98 cfbd 2d0e 053e bbbc b3bc
000001e0: 8cc3 aebe f08e ad3e 9236 cb3d bd4b 203e
000001f0: d96c d83a 889a c83e 563a 37bc 7407 7dbf
00000200: 1f79 8abe ceed 7d3e f9ee 46bf 4368 80bf
00000210: 32eb 103d 1b48 68be 9c39 9abe a61d fc3c
00000220: 3c79 8fbd c19f ba3b 9831 b33d e382 233d
00000230: 3266 563c 496b 913d 3aa5 a9bd 87c3 91bc
00000240: d7be b2be b493 b03e fe16 623e 643d 8b3e
00000250: dedb 843e 68c9 9a3e d7c5 cd3c 4442 3d3e
00000260: 8ed8 f3bc 04be 77bf 4b30 143e d015 d73e
00000270: 3489 a73d 3991 1d3e b46a 8c3b 35e6 533e
00000280: 21a2 7f3b f873 823d 6437 88be a39d 173f
00000290: 81eb 753e caa0 ad3d 17f8 873e bb22 b7bd
000002a0: e456 0b3e bbb9 563d 542b bd3e 1587 1ebf
000002b0: 9d64 9bbc 5d6f 003f 2e17 293e 285e ed3e
000002c0: aca6 30bd 2e5c 693e 76cb 243e 8fed 1f3c
000002d0: 07dd c9bb 4b69 9fbd f850 25bd c893 e43d
000002e0: 0e02 28bd 9efa 793d 536e 433d 5966 ecbc
000002f0: 1918 6f3d 742d 2bbf 2629 bb3e bf45 b33e
00000300: af89 d23c 747a 893e 869d b7bd 80a6 993e
00000310: 9919 343e a9c3 99be 0783 843a 77b2 cebe
00000320: dc26 2dbf 5bb1 34be 342f 24bf c09f 9abf
00000330: b2a9 f2be a23f 13bf 24ee bb3d b9cd 9cbd
00000340: a273 87bd 2d8c 673b c35e 903b 9d32 dabd
00000350: b30a bdbd 6dae bfbd 1616 4bbd bbf1 973d
00000360: 3f48 643e 11a5 e53e b717 463f bb09 573e
00000370: 2d1b b23e 4db0 b53c 4363 6e3e b5f9 b93e
00000380: daa7 a83e 8579 cabb e165 093e ed86 fdbe
00000390: ef8d c23e c18a 803e 4ad9 8bbe a38b 9cbc
000003a0: e78e 923e 4fef 0abf 865d 413e 864b 343e
000003b0: dec9 163f 9037 a13d 50ce 00bd cd65 b9be
000003c0: b6b9 0b3e 2691 f43e 26ce 8b3e f4c2 b6bd
000003d0: f48c e2bc 93ac 6bbc 39e0 963e 1f3f 0e3f
000003e0: 8574 50be 7cbb 6f3e d8f9 883e 2a1d 37bf
000003f0: c404 a2bc 2f92 ddbd 13ff 9e3c d5dd c93d

encoder.4.bias f4 [8]
-0.26092076 0.10873214 0.10559025 -0.12007852 0.03143054 0.13830468 -0.025926547 0.4034703
00000000: 6897 85be f5ae de3d b33f d83d baeb f5bd
00000010: 4fbd 003d be9f 0d3e e963 d4bc a993 ce3e

encoder.6.weight f4 [8, 8, 4, 4]
0.13412139 -0.22374159 -0.1862797 0.3238883 0.12806371 0.34621638 -0.087762505 -0.431988
-0.008278294 -0.32800168 0.49870113 -0.09524568 -0.13767385 -0.3852521 1.1504518 -0.08881307
-0.18853502 0.042342912 -0.19871677 0.20965342 0.120898396 -0.2719954 -0.07812458 -0.07414246
0.062390417 -0.068219386 0.28075534 -0.05142581 -0.121037975 -0.588731 0.033467025 -0.09325942
-0.086683884 -0.06466281 -0.32317123 0.031787947 0.15618828 0.3079899 0.20899625 -0.12323012
0.06254271 -0.13002646 -0.2864685 0.37265792 -0.13377064 -0.32322377 0.24113701 -0.036699627
-0.08264884 -0.029289104 0.018152097 0.06718119 0.14282902 0.17007491 0.11825672 -0.09415706
-0.05707518 -0.108721495 0.094924405 -0.11072045 -0.08531232 -0.30275464 0.4351512 0.065620266
-0.1560274 0.0036310896 -0.21925473 0.07303033 0.014139298 -0.09063332 -0.17272659 -0.2757318
0.022387568 -0.28731754 0.06010678 0.13585465 -0.024608275 -0.4974127 0.5743543 0.080236636
-0.13029522 -0.0958015 -0.22175676 -0.015067394 0.1642002 -0.17878626 0.05839977 -0.49944758
0.0052177873 -0.5151831 -0.07541999 -0.7204233 0.14007328 -0.7384467 -0.24789573 -0.056496315
-0.028543035 0.19214503 -0.1345957 -0.024125908 0.021616569 0.12732126 0.21714653 -0.12586589
-0.065212466 -0.040190965 0.020241274 -0.24646452 -0.19632478 -0.20348482 0.20674755 0.13790889
-0.04633994 0.05861898 -0.296366 -0.03436888 -0.016282566 -0.23887093 0.2034959 -0.08482883
-0.071951546 -0.13956311 -0.26578403 0.30354458 0.03289979 0.2563546 0.45045495 0.0780055
0.048247695 0.041415583 1.1387945 -0.8144039 -0.0066767423 0.08177912 -0.12892212 -0.66284484
0.05658656 -0.08977891 -0.20692734 0.23022152 -0.140797 -0.18698208 0.24006593 -0.13479717
-0.0059830523 0.04954774 0.40814605 -0.24304275 0.08661396 0.016354984 -1.4643813 -0.366753
-0.11233185 -0.08821348 0.23067705 0.015558731 -0.055480264 -0.01589109 -0.8059867 0.060561657
0.029960806 0.024515705 0.21326298 -0.29994032 -0.005037352 0.37459627 -0.18448327 -0.0063632736
-0.0341429 0.053700626 0.060946953 -0.26324818 -0.053417947 -0.08337577 -0.2033409 0.2752195
0.28044808 -0.027842311 -0.05656001 -0.10392881 0.0044644 0.2509818 -0.050642043 -0.47868186
-0.016804213 -0.006534834 -0.039573178 0.13469358 -0.004138845 -0.008958651 -0.17718804 -0.18792647
-0.0824541 0.077270985 -0.08488101 -0.7697072 0.04858158 0.16022931 -0.47177324 0.13798155
-0.18139738 -0.025478257 0.090291984 -0.28177273 -0.1154948 -0.41695493 -0.08210006 -0.010446525
-0.06041659 0.1886936 0.6926475 -1.042567 0.05065434 0.28909627 0.01810397 -0.45215484
-0.07045391 -0.458037 -0.06525381 0.07378062 -0.21674074 -0.19955717 0.3704329 -0.28175452
0.052613076 0.080932185 -0.20214252 -0.19816142 -0.084243745 0.058123294 0.21844575 -0.5642708
-0.04782729 -0.033338923 0.080059215 0.596712 -0.09919698 -0.07489973 0.08342811 -0.14779699
0.0131418845 0.14068982 0.053038273 -0.013669966 0.06921678 -0.029959492 0.02117132 -0.057349697
-0.032573182 0.32003808 0.26071483 -0.5863672 0.06620979 0.061452053 -0.16280678 0.044716228
00000000: 1e57 093e 841c 65be 1bc0 3ebe b0d4 a53e
00000010: 2223 033e 4643 b13e d4bc b3bd 882d ddbe
00000020: aea1 07bc d6ef a7be c155 ff3e 2b10 c3bd
00000030: 60fa 0cbe c33f c5be 0142 933f a0e3 b5bd
00000040: 530f 41be c36f 2d3d 697c 4bbe 63af 563e
00000050: 9499 f73d fb42 8bbe c8ff 9fbd 01d8 97bd
00000060: 188d 7f3d 9bb6 8bbd 2abf 8f3e dfa3 52bd
00000070: c2e2 f7bd 13b7 16bf b814 093d cbfe bebd
00000080: 5287 b1bd ef6d 84bd b376 a5be 1434 023d
00000090: d2ef 1f3e dab0 9d3e 1d03 563e 1360 fcbd
000000a0: 6416 803d a825 05be 00ac 92be 05cd be3e
000000b0: 2cfb 08be 967d a5be 9fec 763e 5952 16bd
000000c0: cc43 a9bd b4ef efbc b5b3 943c 4b96 893d
000000d0: c541 123e 1e28 2e3e 9430 f23d 6bd5 c0bd
000000e0: aac7 69bd 60a9 debd ba67 c23d 67c1 e2bd
000000f0: 3ab8 aebd a802 9bbe 23cc de3e eb63 863d
00000100: a6c5 1fbe 93f7 6d3b 5084 60be ed90 953d
00000110: 84a8 673c f69d b9bd 3ddf 30be b82c 8dbe
00000120: 2266 b73c 491b 93be 8732 763d 7b1d 0b3e
00000130: 4b97 c9bc e1ac febe e208 133f 1b53 a43d
00000140: 1c6c 05be 9433 c4bd 3414 63be 3bdd 76bc
00000150: 1924 283e bf13 37be 9934 6f3d 98b7 ffbe
00000160: f9f9 aa3b 0ae3 03bf cc75 9abd a96d 38bf
00000170: 5f6f 0f3e d80a 3dbf 61d8 7dbe ae68 67bd
00000180: 15d3 e9bc abc1 443e 75d3 09be b2a3 c5bc
00000190: 3b15 b13c 8160 023e a95b 5e3e fde2 00be
000001a0: 1d8e 85bd 489f 24bd 07d1 a53c 3261 7cbe
000001b0: 5d09 49be 535e 50be a1b5 533e fd37 0d3e
000001c0: f3ce 3dbd 751a 703d 49bd 97be 62c6 0cbd
000001d0: 0463 85bc 959a 74be 3b61 503e bdba adbd
000001e0: 555b 93bd a2e9 0ebe d814 88be 326a 9b3e
000001f0: eec1 063d e940 833e 08a2 e63e 59c1 9f3d
00000200: 609f 453d 63a3 293d 05c4 913f c67c 50bf
00000210: 93c8 dabb d07b a73d 2904 04be 33b0 29bf
00000220: 4fc7 673d 01de b7bd c3e4 53be 31bf 6b3e
00000230: 172d 10be 3b78 3fbe d8d3 753e 4508 0abe
00000240: 7b0d c4bb 92f2 4a3d 85f8 d03e 33e0 78be
00000250: a962 b13d e3fa 853c d970 bbbf 0dc7 bbbe
00000260: 3e0e e6bd 45a9 b4bd 9b36 6c3e 0cea 7e3c
00000270: 463f 63bd 082e 82bc 2555 4ebf 800f 783d
00000280: 5d70 f53c 29d5 c83c 9c61 5a3e c791 99be
00000290: 5f10 a5bb 15cb bf3e 2fe9 3cbe 0283 d0bb
000002a0: 6dd9 0bbd 30f5 5b3d 83a3 793d 77c8 86be
000002b0: c7cc 5abd eac0 aabd 9938 50be 92e9 8c3e
000002c0: e496 8f3e 8f15 e4bc 78ab 67bd a1d8 d4bd
000002d0: 1a4a 923b b080 803e 086e 4fbd ca15 f5be
000002e0: fda8 89bc 2922 d6bb 7c17 22bd 1ded 093e
000002f0: 269f 87bb 4ec7 12bc c870 35be cc6f 40be
00000300: b2dd a8bd 4040 9e3d 18d6 adbd 880b 45bf
00000310: 7bfd 463d 2713 243e 438c f1be 094b 0d3e
00000320: 3cc0 39be c7b7 d0bc 01eb b83d 8444 90be
00000330: 8a88 ecbd 1e7b d5be 1424 a8bd e727 2bbc
00000340: 6377 77bd e538 413e 5951 313f d672 85bf
00000350: ed7a 4f3d 6d04 943e c74e 943c d780 e7be
00000360: 244a 90bd d383 eabe caa3 85bd 4b1a 973d
00000370: 49f1 5dbe b758 4cbe 62a9 bd3e 2142 90be
00000380: cf80 573d c6bf a53d 73fe 4ebe d4ea 4abe
00000390: fc87 acbd b112 6e3d 3eb0 5f3e 0d74 10bf
000003a0: 8ce6 43bd 658e 08bd 16f6 a33d 1ec2 183f
000003b0: c927 cbbd 0865 99bd 5bdc aa3d 1858 17be
000003c0: 0f51 573c fe10 103e a93e 593d fef7 5fbc
000003d0: 87c1 8d3d 9c6d f5bc 7a6f ad3c 84e7 6abd
000003e0: 756b 05bd 08dc a33e 6a7c 853e 291c 16bf
000003f0: 0099 873d 26b5 7b3d d2b6 26be 5d28 373d

encoder.6.bias f4 [8]
-0.23410594 -0.09829058 -0.0058065536 0.19790623 -0.17291488 -0.12628648 -0.17517495 -0.014175067
00000000: 78b9 6fbe 924c c9bd e744 bebb eea7 4a3e
00000010: 9910 31be 3e51 01be 1061 33be 8a3e 68bc

decoder.0.weight f4 [8, 8, 4, 4]
0.15968563 -0.33940175 -0.24652559 0.1627856 0.05229438 -0.18707518 -0.07833514 -0.07580273
0.13831618 0.014972638 0.04388126 -0.2587549 0.05732994 -0.40764666 0.3500891 0.23700505
0.15727612 -0.7923351 0.019051261 0.21525127 0.08298355 -0.023149312 -0.0030071575 0.09246973
-0.044237312 0.048946347 -0.0042619687 0.0633907 -0.4018757 -0.20005941 0.25618768 0.090180695
-0.32377794 0.4947712 -0.41337916 -0.11327867 -0.010167623 -0.1522801 0.059847638 0.040112082
-0.13473414 -0.12082407 0.010513707 -0.034924753 0.29320988 0.2443756 0.36978105 0.064001225
0.049099796 0.39839378 -0.041442946 0.28806072 0.082752354 0.029909214 -0.02820999 -0.03428226
0.0043958295 -0.10924811 -0.06949254 -0.29961428 0.30069724 -0.1782911 0.11683758 -0.11089321
0.1001696 -0.23987801 0.30322105 -0.33555067 0.12936977 -0.056785412 0.0003516575 -0.10737032
-0.087010264 0.049436085 -0.0724364 -0.18823685 -0.110024154 -0.015287982 0.18079142 0.1508357
-0.18835354 -0.027692692 -0.14886759 -0.40592372 0.21751711 -0.02348941 0.183192 0.049676448
0.031961676 -0.05002875 0.047496513 0.1731353 -0.10976568 -0.34496427 0.012833322 -0.056902256
-0.046827156 -0.06795329 -0.19118121 -0.17589463 0.1447003 -0.025793841 0.03752966 -0.22124991
-0.2725975 0.0041739726 -0.0023721098 -0.0411311 -0.6340785 -0.08201534 -0.21990004 -0.024238477
-0.21384726 0.34390044 0.06887612 -0.57886475 0.015347556 0.14831059 -0.010576 -0.22959031
0.057461023 -0.24918884 0.004225204 -0.021938244 0.32248718 -0.16952057 0.23235378 -0.08865185
-0.035686117 0.37463242 -0.2827642 -0.15219902 -0.20037894 -0.13964102 -0.022811128 -0.22278821
0.006804606 0.13192041 0.00049395656 -0.051558476 -0.02292954 -0.2960348 -0.039774917 -0.33633488
0.057149045 -0.23962316 0.1195718 0.69198686 0.07155707 0.11722946 0.09365323 0.09473735
-0.06610807 0.046640877 0.03641024 0.05534035 -0.3423481 -0.1572586 -0.08665543 0.019136984
-0.06732858 -0.034230165 0.103568844 -0.27318406 0.059032395 0.24053086 -0.08852249 0.08242855
-0.02301256 0.111591734 -0.017729206 -0.119851924 0.19572741 0.044588894 -0.13617924 -0.055623736
-0.15828457 -0.08378435 -0.6221991 -0.33935472 -0.09147774 0.098949604 0.09326322 -0.4241346
-0.2109279 -0.07282047 0.041784454 0.059550665 -0.041242395 -0.09309411 -0.036420397 -0.05365882
-0.13491634 -0.33429164 0.0058731236 1.2289494 -0.09209472 0.13330308 0.063547745 0.18464603
-0.017036706 0.1169327 -0.039703846 0.12660372 -0.017940588 0.020013493 -0.148529 -0.19234249
-0.003949555 0.1351163 -0.10446407 0.23896292 -0.07229857 0.15413924 -0.086309046 0.1088683
0.08146801 0.05522037 0.0018191481 -0.23443125 -0.17827743 -0.02676646 -0.03845953 0.10332169
-0.45383286 0.069075644 -0.14935148 -0.3774248 -0.11608048 -0.0173452 0.010820427 0.100976475
-0.4231894 0.08235707 0.04892821 -0.06822849 -0.03367483 0.024887465 0.23995389 -0.14015888
0.111779176 -0.21662176 0.74331063 -0.61547756 -0.07017513 -0.019339396 0.07419572 -0.18711682
-0.1699274 0.04702945 0.05857548 0.07854873 0.049968787 0.08502061 -0.052911263 0.052306116
00000000: a184 233e 11c6 adbe 3471 7cbe 45b1 263e
00000010: a232 563d a390 3fbe 2d6e a0bd 763e 9bbd
00000020: c2a2 0d3e cc4f 753c d6bc 333d 867b 84be
00000030: cdd2 6a3d 10b7 d0be e13e b33e 74b1 723e
00000040: fe0c 213e 79d6 4abf 6411 9c3c d46a 5c3e
00000050: 48f3 a93d a0a3 bdbc bb13 45bb c560 bd3d
00000060: 2f32 35bd f77b 483d fca7 8bbb fcd2 813d
00000070: a7c2 cdbe 60dc 4cbe 082b 833e a8b0 b83d
00000080: 39c6 a5be a752 fd3e 6fa6 d3be a6fe e7bd
00000090: 1a96 26bc 51ef 1bbe cc22 753d 914c 243d
000000a0: bff7 09be 9c72 f7bd af41 2c3c 420d 0fbd
000000b0: 9b1f 963e 993d 7a3e f153 bd3e 1313 833d
000000c0: de1c 493d 45fa cb3e 14c0 29bd b27c 933e
000000d0: 117a a93d 2b04 f53c a318 e7bc 8e6b 0cbd
000000e0: e40a 903b 79bd dfbd 1b52 8ebd 0b67 99be
000000f0: fdf4 993e f191 36be 8b48 ef3d fb1b e3bd
00000100: b825 cd3d 95a2 75be ca3f 9b3e 4ccd abbe
00000110: 8279 043e d297 68bd ac5e b839 f8e4 dbbd
00000120: 7032 b2bd 7e7d 4a3d 8959 94bd 29c1 40be
00000130: 5854 e1bd 727a 7abc 6321 393e ac74 1a3e
00000140: c0df 40be c9db e2bc bf70 18be 3cd5 cfbe
00000150: cebc 5e3e dd6c c0bc af96 3b3e 8879 4b3d
00000160: 3fea 023d f2ea 4cbd b48b 423d 614a 313e
00000170: d4cc e0bd 289f b0be db42 523c 5712 69bd
00000180: d5cd 3fbd 182b 8bbd 02c5 43be b91d 34be
00000190: 512c 143e 9b4d d3bc b3b8 193d 568f 62be
000001a0: e691 8bbe d2c5 883b 6675 1bbb 1679 28bd
000001b0: f852 22bf a9f7 a7bd 7a2d 61be c58f c6bc
000001c0: c7fa 5abe b813 b03e ec0e 8d3d 7b30 14bf
000001d0: 5174 7b3c bbde 173e f646 2dbc b919 6bbe
000001e0: 405c 6b3d 5c2b 7fbe 9473 8a3b d5b7 b3bc
000001f0: 0a1d a53e cd96 2dbe 26ee 6d3e 1a8f b5bd
00000200: 9b2b 12bd d2cf bf3e 78c6 90be 0fda 1bbe
00000210: 2330 4dbe 0efe 0ebe 67de babc 9822 64be
00000220: 2cf9 de3b 2516 073e dd7c 013a fb2e 53bd
00000230: bbd6 bbbc e091 97be 06eb 22bd 1634 acbe
00000240: 1e15 6a3d c65f 75be 0fe2 f43d 0d26 313f
00000250: 838c 923d 0016 f03d 44cd bf3d a805 c23d
00000260: ab63 87bd 810a 3f3d e722 153d 90ac 623d
00000270: 4048 afbe 6608 21be 6778 b1bd 2ac5 9c3c
00000280: 91e3 89bd ee34 0cbd e71b d43d c8de 8bbe
00000290: f4cb 713d b94d 763e 474b b5bd 4dd0 a83d
000002a0: d684 bcbc 358a e43d d73c 91bc ed74 f5bd
000002b0: c46c 483e d8a2 363d 9272 0bbe b7d5 63bd
000002c0: 5a15 22be 2197 abbd 7148 1fbf e7bf adbe
000002d0: ae58 bbbd 17a6 ca3d c900 bf3d 2c28 d9be
000002e0: 7cfd 57be e622 95bd 2d26 2b3d 66eb 733d
000002f0: c9ed 28bd 20a8 bebd 8e2d 15bd 5ac9 5bbd
00000300: 8227 0abe 4628 abbe 5573 c03b 374e 9d3f
00000310: 289c bcbd 9a80 083e 5225 823d d913 3d3e
00000320: 9090 8bbc 697a ef3d 80a0 22bd 68a4 013e
00000330: 24f8 92bc 56f3 a33c fc17 18be 6ef5 44be
00000340: 456b 81bb ed5b 0a3e 42f1 d5bd b2b2 743e
00000350: 4611 94bd add6 1d3e ccc2 b0bd 58f6 de3d
00000360: b3d8 a63d c12e 623d 7b70 ee3a bf0e 70be
00000370: 5c8e 36be 5645 dbbc bd87 1dbd 529a d33d
00000380: c85c e8be 8877 8d3d 98ef 18be d33d c1be
00000390: 9abb edbd 8517 8ebc 2948 313c c1cc ce3d
000003a0: 48ac d8be d3aa a83d f268 483d 61bb 8bbd
000003b0: 9eee 09bd cce0 cb3c 79b6 753e cf85 0fbe
000003c0: 7bec e43d 18d2 5dbe 9b49 3e3f f08f 1dbf
000003d0: fbb7 8fbd a76d 9ebc edf3 973d 8d9b 3fbe
000003e0: 7301 2ebe f4a1 403d d8ec 6f3d 28de a03d
000003f0: 12ac 4c3d 491f ae3d 7bb9 58bd f03e 563d

decoder.0.bias f4 [8]
0.3453804 -0.25754383 -1.0062186 0.3479315 0.025964713 -0.4176267 1.1749476 0.29282826
00000000: b3d5 b03e c9dc 83be c5cb 80bf 1424 b23e
00000010: f3b3 d43c 2bd3 d5be af64 963f 96ed 953e

decoder.2.weight f4 [8, 8, 3, 3]
-0.070138864 0.34320235 -0.090512805 -0.10169692 -0.037433337 0.3066948 -0.054828368 -0.113835216
-0.04612658 0.14543352 -0.059270583 -0.38092953 0.16679731 0.17871946 -0.22004177 0.02186735
0.0695553 0.19817778 -0.02904217 0.25125885 -0.16897182 -0.39511183 0.10760981 0.02898407
-0.014349872 0.292998 0.06411553 0.115009785 0.013333943 -0.09308333 0.37311745 0.0780866
0.0053846748 0.4765368 -0.39270553 0.24873099 0.04878344 -0.019701913 -0.0017039533 0.09137129
0.17928708 -0.04639264 0.15899563 0.16977581 0.05678253 0.08265894 0.21645431 0.10474994
-0.10957928 0.038423583 -0.042942204 0.28828084 -0.087231964 0.21866949 0.17736873 -0.032858204
0.07021441 0.29748636 0.00986226 -0.24590637 0.0099504655 0.11323486 0.114426486 0.1979978
-0.2669067 -0.21465199 0.22118782 -0.2933291 -0.1756649 0.37811658 0.07445156 0.09081557
-0.06535115 0.23064727 0.006821276 -0.0055407044 0.36701354 -0.17152056 -0.16978206 0.1587566
-0.042863663 -0.025580376 -0.22631297 -0.21578066 0.076656245 -0.1705543 0.031750664 -0.41265172
-0.08136863 -0.21521528 0.06887017 0.011117552 0.30086824 0.056154143 0.36205623 0.14631665
-0.015672006 -0.19481368 0.015542963 -0.19249079 0.20362686 0.19651434 0.42138883 0.31180224
-0.012483651 0.00935147 -0.2127992 -0.019312117 0.24584179 -0.27645236 -0.028203338 0.057030708
0.018867781 0.039560072 -0.05157557 0.12150863 0.123797975 -0.41182593 0.10682675 -0.18750829
0.1098594 0.10428413 0.32471645 -0.17476514 0.27752882 0.28503123 0.04367972 0.004425402
0.054382365 -0.01611747 0.003813426 0.06866018 -0.27107087 0.031870484 -0.058583844 -0.03596715
0.14156425 0.16186072 0.35451555 0.11442356 0.12684892 -0.26844752 -0.35867494 -0.28665355
0.0009613083 0.04781494 -0.10708133 0.171986 0.12892261 0.32492566 -0.13447879 -0.2274224
0.04485273 -0.080725715 -0.034875814 -0.057504 0.10612805 0.057540342 -0.26171052 0.25630036
-0.07733929 -0.2571554 0.0023423966 -0.12270423 -0.054823257 -0.0645123 0.09413826 0.5044656
0.21381176 -0.33044097 -0.18943484 -0.01624466 0.024892379 -0.040309884 -0.11914793 -0.29945043
0.08503272 0.052820828 0.36843786 0.12979645 -0.07743509 -0.3210642 0.10950431 0.028934697
-0.24914898 -0.03436027 -0.02965025 0.095031925 0.02612002 0.036373276 -0.287163 -0.086531356
-0.090063654 0.026638234 -0.08360658 0.18055134 0.3098952 0.26636428 -0.15099172 -0.1833108
-0.051133398 0.006124428 0.38787532 0.35109437 0.1899847 0.38485718 0.09803896 -0.214064
0.10573561 0.058073945 0.22404887 0.24985892 0.29000434 0.46841308 -0.25152868 0.058823567
-0.0090649035 -0.004970835 -0.047202688 -0.19070941 -0.016745476 -0.029299892 -0.06731726 -0.31927353
-0.028992992 0.10921128 0.20184858 -0.11875492 0.20690809 0.16663553 0.019180637 0.057479333
0.34839082 0.0015710936 -0.27784488 0.06656916 -0.26811925 -0.111545056 0.4422614 0.053762577
-0.06151026 -0.06670638 0.1365678 -0.14778087 0.042900626 0.11483375 0.1578031 0.22159243
0.21598378 -0.2439325 0.1611503 0.1834738 -0.16288115 0.16736451 0.11962663 0.31405735
00000000: f7a4 8fbd 38b8 af3e c75e b9bd 7a46 d0bd
00000010: b353 19bd 1a07 9d3e b693 60bd 7022 e9bd
00000020: 3aef 3cbd 86ec 143e b6c5 72bd 3209 c3be
00000030: eacc 2a3e 3c02 373e a152 61be 2823 b33c
00000040: 0273 8e3d 1eef 4a3e d8e9 edbc 00a5 803e
00000050: f306 2dbe 194c cabe 8862 dc3d 0070 ed3c
00000060: ba1b 6bbc d503 963e 014f 833d 408a eb3d
00000070: 9c76 5a3c 79a2 bebd 4009 bf3e deeb 9f3d
00000080: ed71 b03b a2fc f33e b310 c9be 56b3 7e3e
00000090: 25d1 473d e865 a1bc 2f57 dfba df20 bb3d
000000a0: 0897 373e 3506 3ebd c0cf 223e b6d9 2d3e
000000b0: cc94 683d 1749 a93d 33a6 5d3e 2387 d63d
000000c0: 1a6b e0bd 0c62 1d3d 2ae4 2fbd 8c99 933e
000000d0: aca6 b2bd e5ea 5f3e 26a0 353e 5396 06bd
000000e0: 93cc 8f3d 2250 983e 5195 213c e1ce 7bbe
000000f0: 4707 233c aee7 e73d 6f58 ea3d efbf 4a3e
00000100: ffa7 88be bbcd 5bbe 0f7f 623e 3b2f 96be
00000110: 80e1 33be 7f98 c13e 0f7a 983d 83fd b93d
00000120: d3d6 85bd cc2e 6c3e 0385 df3b cc8e b5bb
00000130: 33e9 bb3e 16a3 2fbe 59db 2dbe 1791 223e
00000140: cf91 2fbd f08d d1bc 96be 67be 9bf5 5cbe
00000150: f3fd 9c3d c9a5 2ebe fc0c 023d 1647 d3be
00000160: 99a4 a6bd 6561 5cbe ce0b 8d3d 6526 363c
00000170: 670b 9a3e e301 663d 6f5f b93e 08d4 153e
00000180: 9462 80bc 3d7d 47be e9a7 7e3c 4e1c 45be
00000190: 8f83 503e 0e3b 493e 47c0 d73e 8ba4 9f3e
000001a0: 3a88 4cbc e836 193c 09e8 59be 7234 9ebc
000001b0: f3bd 7b3e 2a8b 8dbe b00a e7bc 0899 693d
000001c0: 9b90 9a3c be09 223d e840 53bd 84d9 f83d
000001d0: cb89 fd3d d9da d2be fcc7 da3d 2c02 40be
000001e0: f7fd e03d eb92 d53d 3c41 a63e a2f5 32be
000001f0: 4218 8e3e 9def 913e 82e9 323d f602 913b
00000200: 0bc0 5e3d c908 84bc acea 793b b59d 8c3d
00000210: cdc9 8abe a08a 023d 9df5 6fbd 4a52 13bd
00000220: 38f6 103e d1be 253e 1083 b53e e656 ea3d
00000230: afe4 013e f471 89be 3ea4 b7be 41c4 92be
00000240: 4f00 7c3a 99d9 433d 754d dbbd 191d 303e
00000250: 4a04 043e a85c a63e cfb4 09be 6be1 68be
00000260: 7fb7 373d 8653 a5bd f1d9 0ebd 5089 6bbd
00000270: aa59 d93d 6caf 6b3d ecfe 85be cd39 833e
00000280: 1064 9ebd dfa9 83be e582 193b 5b4c fbbd
00000290: 5a8e 60bd 061f 84bd 8fcb c03d a824 013f
000002a0: 78f1 5a3e 8f2f a9be 35fb 41be 8513 85bc
000002b0: 1aeb cb3c fa1b 25bd d403 f4bd 9151 99be
000002c0: a225 ae3d a75a 583d e3a3 bc3e 5ce9 043e
000002d0: 4a96 9ebd 8762 a4be cc43 e03d 7508 ed3c
000002e0: e920 7fbe 5bbd 0cbd 15e5 f2bc 19a0 c23d
000002f0: a7f9 d53c 25fc 143d 0707 93be 5a37 b1bd
00000300: 4b73 b8bd 6d38 da3c ed39 abbd 73e2 383e
00000310: 95aa 9e3e e660 883e 939d 1abe d4b5 3bbe
00000320: 4171 51bd 6daf c83b 9897 c63e a4c2 b33e
00000330: 598b 423e 000c c53e a6c8 c83d 9833 5bbe
00000340: e98b d83d f2de 6d3d 116d 653e 04db 7f3e
00000350: 737b 943e d7d3 ef3e 5ec8 80be fbf0 703d
00000360: f684 14bc 63e2 a2bb 9b57 41bd 5449 43be
00000370: cf2d 89bc 5406 f0bc a2dd 89bd d277 a3be
00000380: b682 edbc 2aaa df3d 65b1 4e3e c835 f3bd
00000390: b7df 533e 81a2 2a3e b620 9d3c 736f 6b3d
000003a0: 4860 b23e 27ed cd3a af41 8ebe 6955 883d
000003b0: ed46 89be bc71 e4bd 1670 e23e 2636 5c3d
000003c0: 2ff2 7bbd 5b9d 88bd 6ed8 0b3e de53 17be
000003d0: 91b8 2f3d f52d eb3d 2397 213e 20e9 623e
000003e0: da2a 5d3e 71c9 79be 9604 253e 8ee0 3b3e
000003f0: 51ca 26be 9a61 2b3e cefe f43d 20cc a03e

decoder.2.bias f4 [8]
0.21682286 -1.0557806 -0.40279368 -0.6590978 0.72087413 -0.018823847 -0.040047176 0.34309417
00000000: d006 5e3e d223 87bf f93a cebe a2ba 28bf
00000010: 358b 383f 7834 9abc 8208 24bd 0aaa af3e

decoder.4.weight f4 [8, 8, 3, 3]
-0.45440835 -0.13905913 -0.05968958 -0.17357643 0.07874783 -0.13644283 0.5826623 0.8155389
0.01859101 0.08567123 0.035108093 -0.007851398 0.08466115 0.06851863 -0.029334044 -0.25507262
0.056388468 0.1116046 -0.06846883 -0.08038721 -0.21172588 -0.36904186 -0.50124186 0.16958372
0.058517966 -0.029546035 0.3905305 -0.053570006 0.059527993 -0.05955502 0.007902565 0.37128192
0.23640278 0.09379208 0.20454364 0.2177187 -0.121360935 -0.26534238 -0.11112541 0.058168303
-0.28289375 0.031296827 0.1428913 0.048184987 -0.039311826 -0.2744613 -0.31010994 -0.23201758
-0.14340067 0.10987572 -0.0016731356 0.3118018 0.6592889 0.34418073 -0.14691946 0.12702376
-0.26034886 0.09012012 0.107123174 -0.005377437 -0.00842417 -0.13938826 0.23189284 0.03152396
-0.020175064 0.012699086 0.06332591 0.03482873 -0.11917281 -0.00031842594 -0.0035062039 -0.054501254
-0.21542396 -0.46916956 -0.2207782 -0.3169978 0.06383691 0.5592713 0.29589987 0.6008669
0.010598475 -0.06922218 0.02984177 0.3444953 0.06536089 -0.039637912 0.2444068 -0.09348292
-0.25081077 0.20878331 -0.12372912 -0.06399824 -0.21008503 0.057324026 0.10870205 -0.25101426
-0.1534317 -0.061675336 0.4264045 0.021190505 0.09370503 0.06501802 0.27294764 0.16632129
-0.22428444 0.06137196 -0.14599098 -0.13565286 -0.04282936 0.073369056 0.18842259 -0.17004685
-0.23796736 -0.01322065 -0.112199776 0.20332542 -0.026947014 0.11593943 0.06773414 -0.071339466
-0.0121203875 0.15022138 -0.03649652 -0.06885341 0.27102676 0.20297766 0.007152874 -0.3169348
-0.016112387 0.053553578 0.24237081 0.35961378 0.100711696 -0.68868285 0.07508346 -0.045186363
0.07169859 0.23375608 0.1553235 0.2803549 -0.0049098735 0.05606902 0.18818872 0.08390294
-0.016600447 0.26524618 -0.15258434 -0.14021991 0.08391446 0.35771957 0.23757388 -0.0139404135
0.002015179 -0.0020118423 -0.04937698 -0.08002837 -0.04221135 0.252915 0.3064192 0.028916638
0.015341117 0.05762094 -0.12695163 -0.20371586 0.32867563 0.25144768 0.07463673 -0.5078839
-0.06801238 0.27947158 -0.02568169 0.16265732 0.089213975 0.08962965 -0.033060197 0.028371688
0.03721766 -0.24509056 -0.14178465 0.06984644 0.042687856 0.21770121 0.22203556 -0.08878302
0.15941593 0.5183597 -0.09206246 0.012506913 0.31107873 0.16914453 0.38490906 0.3812861
0.08035616 0.3351314 0.63134515 -0.11744251 -0.061874185 0.19859351 0.31974548 -0.014233876
0.037658297 0.28527904 0.2560488 -0.17335075 -0.039624713 0.43258777 -0.3320308 0.10532663
0.13114217 -0.08694209 0.26665708 0.58646226 0.20146304 0.09198766 0.23365873 0.18547678
0.070469655 -0.059072062 0.05050423 -0.20448253 0.16008705 0.18573603 0.08583027 0.25629756
-0.23761512 -0.05923044 -0.40215978 0.07349647 -0.35919896 0.17779692 -0.044172928 0.04775916
0.29941085 -0.07171462 -0.38416153 -0.28043044 -0.043824963 0.50705814 -0.40553865 -0.31677666
0.098055474 -0.27496698 0.31213966 0.013713108 -0.3780824 -0.008235212 -0.08599237 -0.26053762
0.11879832 -0.09876738 0.086587854 0.12512907 -0.20931683 0.3069047 0.24728511 -0.54613984
00000000: 36a8 e8be 8465 0ebe 107d 74bd 05be 31be
00000010: 8b46 a13d abb7 0bbe 5b29 153f 28c7 503f
00000020: 2c4c 983c 6674 af3d 81cd 0f3d 26a3 00bc
00000030: d362 ad3d 7f53 8c3d f34d f0bc e198 82be
00000040: 98f7 663d f490 e43d 6339 8cbd 0da2 a4bd
00000050: abce 58be 0ef3 bcbe 6351 00bf 5ba7 2d3e
00000060: 89b0 6f3d 870a f2bc 9df3 c73e 396c 5bbd
00000070: a0d3 733d f7ef 73bd c379 013c aa18 be3e
00000080: 9213 723e 1016 c03d e373 513e a7f1 5e3e
00000090: 158c f8bd f5da 87be b895 e3bd e341 6e3d
000000a0: 73d7 90be 1a31 003d 1952 123e 9f5d 453d
000000b0: 7005 21bd 3186 8cbe bbc6 9ebe 0496 6dbe
000000c0: a0d7 12be 8606 e13d 1d4d dbba 7ca4 9f3e
000000d0: 28c7 283f 7538 b03e 0e72 16be 8412 023e
000000e0: 724c 85be e690 b83d 6563 db3d 3635 b0bb
000000f0: 8805 0abc ccbb 0ebe 5175 6d3e 451f 013d
00000100: 2d46 a5bc d40f 503c 04b1 813d 92a8 0e3d
00000110: e010 f4bd 68f2 a6b9 57c8 65bb b53c 5fbd
00000120: 1998 5cbe fe36 f0be ae13 62be 894d a2be
00000130: edbc 823d 672c 0f3f 3080 973e 6ad2 193f
00000140: 3aa5 2d3c 5cc4 8dbd ba76 f43c b061 b03e
00000150: eedb 853d 5d5b 22bd c745 7a3e f973 bfbd
00000160: 456a 80be 4bcb 553e b165 fdbd 8211 83bd
00000170: 8820 57be 99cc 6a3d 2e9f de3d f184 80be
00000180: 331d 1dbe 479f 7cbd b151 da3e b697 ad3c
00000190: 6ce8 bf3d 2b28 853d cbbf 8b3e 2150 2a3e
000001a0: d2aa 65be 2a61 7b3d a97e 15be 95e8 0abe
000001b0: d76d 2fbd 8442 963d daf1 403e c320 2ebe
000001c0: b7ad 73be 6d9b 58bc ffc8 e5bd 8a34 503e
000001d0: fcbf dcbc a771 ed3d 32b8 8a3d 6d1a 92bd
000001e0: 9794 46bc a2d3 193e 607d 15bd 0403 8dbd
000001f0: 05c4 8a3e 60d9 4f3e a862 ea3b 4745 a2be
00000200: 20fe 83bc ff5a 5b3d 0e30 783e 4c1f b83e
00000210: ef41 ce3d 854d 30bf 5bc5 993d 5615 39bd
00000220: b6d6 923d c15d 6f3e 200d 1f3e ad8a 8f3e
00000230: 01e3 a0bb a1a8 653d 8bb4 403e 4ed5 ab3d
00000240: a9fd 87bc 59ce 873e 123f 1cbe cf95 0fbe
00000250: 58db ab3d 0527 b73e 9146 733e 5566 64bc
00000260: 1811 043b 1dd9 03bb 843f 4abd eae5 a3bd
00000270: cfe5 2cbd 137e 813e fae2 9c3e 96e2 ec3c
00000280: 4f59 7b3c ef03 6c3d 9cff 01be e49a 50be
00000290: 2c48 a83e c0bd 803e 24db 983d ae04 02bf
000002a0: 134a 8bbd e616 8f3e 6862 d2bc a48f 263e
000002b0: d1b5 b63d c08f b73d 216a 07bd be6b e83c
000002c0: 8c71 183d 05f9 7abe ff2f 11be a60b 8f3d
000002d0: 76d9 2e3d 11ed 5e3e 4a5d 633e dfd3 b5bd
000002e0: ee3d 233e 39b3 043f 3e8b bcbd cce9 4c3c
000002f0: b645 9f3e 3934 2d3e cd12 c53e ef37 c33e
00000300: c591 a43d 5896 ab3e d69f 213f b385 f0bd
00000310: c96f 7dbd 195c 4b3e aeb5 a33e 3435 69bc
00000320: 963f 1a3d 1810 923e d418 833e dc82 31be
00000330: 864d 22bd 257c dd3e f1ff a9be 7db5 d73d
00000340: 224a 063e b20e b2bd 4787 883e 6422 163f
00000350: 544c 4e3e 0764 bc3d 3c44 6f3e a0ed 3d3e
00000360: 6552 903d 8cf5 71bd 86dd 4e3d de63 51be
00000370: dced 233e 9631 3e3e c8c7 af3d 6f39 833e
00000380: 6151 73be 9e9b 72bd e3e7 cdbe 5185 963d
00000390: ede8 b7be 6510 363e acee 34bd 1c9f 433d
000003a0: 614c 993e 1ddf 92bd d2b0 c4be 9494 8fbe
000003b0: ce81 33bd 90ce 013f c3a2 cfbe 8d30 a2be
000003c0: 4fd1 c83d 79c8 8cbe c5d0 9f3e f2ac 603c
000003d0: 0494 c1be fcec 06bc c51c b0bd 3065 85be
000003e0: 894c f33d 8d46 cabd f954 b13d d621 003e
000003f0: 2757 56be 9d22 9d3e 4f38 7d3e d2cf 0bbf

decoder.4.bias f4 [8]
0.031117648 0.21388131 -0.5350906 1.2588729 -0.40542966 -0.37541533 -0.778211 -1.1122851
00000000: 70ea fe3c b403 5b3e b3fb 08bf bf22 a13f
00000010: 7a94 cfbe 7036 c0be d638 47bf 5c5f 8ebf

decoder.6.weight f4 [8, 1, 3, 3]
-0.10417858 -0.38797385 -0.2560206 -0.3027533 -0.7209318 -0.43846628 -0.3083438 -0.6697947
-0.35613272 -0.3165906 -0.12212558 -0.13504563 -0.60768116 -0.07529532 -0.27164298 -0.22493777
0.21779512 -0.013680418 -0.4752252 -0.83774674 -0.59497046 -0.9967959 -1.4346409 -0.89914316
-0.6033592 -0.77385545 -0.4441311 0.5584046 0.90092736 0.56687254 1.0035943 1.2693634
0.73526275 0.5001162 0.51382464 0.22104812 -0.1812088 -0.59186465 -0.63695896 -0.3885137
-0.8547225 -0.8415545 -0.19696209 -0.3521125 -0.31273735 -0.25551626 -0.052340925 0.24847789
-0.6272697 -0.4205368 0.2073422 -0.52688754 -0.4673693 -0.03605185 -0.533994 -0.91866946
-0.60417664 -1.022718 -1.4849479 -0.90960616 -0.7787393 -1.1135596 -0.57933116 0.002996532
-0.45434463 -0.24481365 -0.27221254 -1.210446 -0.5038152 -0.1141547 -0.4934484 -0.07833205
00000000: 945b d5bd 82a4 c6be 2215 83be 7b02 9bbe
00000010: fd8e 38bf a77e e0be 3ddf 9dbe aa77 2bbf
00000020: 0757 b6be 2a18 a2be fa1c fabd 6749 0abe
00000030: fe90 1bbf 6f34 9abd ca14 8bbe 1656 66be
00000040: af05 5f3e d523 60bc b850 f3be 9276 56bf
00000050: fc4f 18bf 042e 7fbf 50a2 b7bf 3f2e 66bf
00000060: c075 1abf 641b 46bf 2765 e3be 9bf3 0e3f
00000070: 2da3 663f 8f1e 113f c775 803f 807a a23f
00000080: 2e3a 3c3f 9e07 003f 038a 033f 705a 623e
00000090: cd8e 39be 7184 17bf be0f 23bf 45eb c6be
000000a0: 18cf 5abf 1e70 57bf 6eb0 49be 1748 b4be
000000b0: 1c1f a0be 07d3 82be 7063 56bd fd70 7e3e
000000c0: bf94 20bf 9950 d7be 8451 543e 1ae2 06bf
000000d0: 074b efbe 1bab 13bd d5b3 08bf ec2d 6bbf
000000e0: 52ab 1abf 6ce8 82bf c612 bebf f3db 68bf
000000f0: 755b 47bf 1f89 8ebf 0c4f 14bf 7761 443b
00000100: dc9f e8be 6eb0 7abe 715f 8bbe e5ef 9abf
00000110: 08fa 00bf f0c9 e9bd 45a5 fcbe 8e6c a0bd

classifier.1.weight f4 [10, 8]
0.30059177 -0.01234412 -0.19811131 0.113463186 -0.3206192 0.3211251 -0.008373114 0.06737351
-0.013590283 0.032973178 0.21320389 -0.079172485 0.09807701 -0.49776953 0.084950574 -0.26332572
0.2602425 -0.0075944406 0.0022060955 0.116274305 0.20669292 -0.42946178 -0.032022443 0.10459523
-0.06271491 0.18175809 -0.0014189065 0.15501662 -0.08086677 -0.17098697 0.36872292 0.09551491
-0.04080423 -0.03996865 0.2487761 0.10904931 -0.13450564 0.08991941 -0.15927908 0.098551676
-0.05182753 0.22972204 -0.055780318 0.24040607 -0.21132594 0.07362676 0.09271195 0.047420826
0.3614849 -0.11060112 -0.21503493 0.124548025 -0.04114716 -0.03745844 -0.1485836 -0.07976628
-0.27215916 -0.12023493 0.46314105 -0.049917053 -0.21801782 0.22637424 0.20325795 0.1953477
0.0948095 -0.025810782 -0.0840716 0.11989141 -0.19951664 -0.23890893 -0.16870016 0.13853559
-0.104385614 -0.15934612 0.15616395 0.046613675 -0.2972903 0.12585475 -0.13589711 0.09530056
00000000: 2ae7 993e fe3e 4abc b1dd 4abe 635f e83d
00000010: 3328 a4be 826a a43e 632f 09bc 1ffb 893d
00000020: c7a9 5ebc e20e 073d 1f52 5a3e 2f25 a2bd
00000030: 99dc c83d a6db febe 91fa ad3d a1d2 86be
00000040: 813e 853e c9da f8bb 2494 103b 3921 ee3d
00000050: 4fa7 533e 6ae2 dbbe f729 03bd 0636 d63d
00000060: ad70 80bd cb1e 3a3e 9afa b9ba adbc 1e3e
00000070: 7a9d a5bd 3517 2fbe 40c9 bc3e 529d c33d
00000080: 5622 27bd 2bb6 23bd 29bf 7e3e 3f55 df3d
00000090: d9bb 09be ab27 b83d 0e1a 23be 76d5 c93d
000000a0: 1b49 54bd 413c 6b3e e779 64bd 022d 763e
000000b0: d465 58be a0c9 963d c3df bd3d 573c 423d
000000c0: 8c14 b93e d782 e2bd 1e32 5cbe 0913 ff3d
000000d0: ed89 28bd 056e 19bd 4d26 18be 815c a3bd
000000e0: 7258 8bbe bb3d f6bd d320 ed3e d375 4cbd
000000f0: 1040 5fbe a6ce 673e da22 503e 3a09 483e
00000100: 7c2b c23d 2271 d3bc bb2d acbd a189 f53d
00000110: 174e 4cbe 8ba4 74be bcbf 2cbe 46dc 0d3e
00000120: 20c8 d5bd a12b 23be 71e9 1f3e fbed 3e3d
00000130: 6f36 98be 11e0 003e 9d28 0bbe f12c c33d

classifier.1.bias f4 [10]
0.2621931 -0.36272216 0.65312284 0.69848114 -0.3462334 -1.0043724 -0.9922274 0.25982267
1.1811862 0.105681114
00000000: 2d3e 863e b8b6 b9be 0f33 273f a9cf 323f
00000010: 8145 b1be 468f 80bf 9d02 7ebf 7a07 853e
00000020: 1c31 973f 576f d83d
