Convolutional_Autoencoders/trained_models/CNN_Autoencoder.pth (torch, 849340 bytes, 13 tensors)

encoder.0.weight f4 [16, 1, 3, 3]
-0.05525532 -0.08849659 -0.34861612 0.24948338 0.36476997 0.2616186 0.4222482 0.5355815
0.35553685 -0.08564459 -0.106166415 0.03558424 -0.069619775 -0.046878844 -0.19377424 0.168662
-0.02924949 0.07867179 0.37422612 0.4208617 -0.10347667 0.20067704 0.041235074 0.15334406
-0.01741103 -0.14765766 0.1387068 -0.15728222 -0.2619971 0.14441755 0.04607665 0.22235943
0.24217309 -0.12581748 0.23052412 -0.24716038 0.16105849 0.03331701 -0.2762757 -0.05613327
-0.1385315 0.13154715 0.03819066 -0.1255868 0.16743788 0.41265455 0.19192153 0.24703099
0.5129995 0.16683114 0.26316586 -0.018592918 -0.07050821 0.12885629 0.1030873 -0.25917032
0.14997806 -0.38270414 -0.5218819 0.28101888 0.25188905 0.29865503 0.11815551 0.14770457
-0.25655884 0.36581856 0.035695776 -0.36356235 -0.10703014 0.23505579 -0.15922093 0.14489429
-0.5910621 0.01054113 0.33430398 -0.22976026 0.3065054 0.39631626 0.19908991 0.21846351
-0.14663622 -0.08872782 -0.030252913 0.03844591 -0.069161125 0.0110038705 0.026644364 -0.19448788
-0.07081538 0.13846807 -0.16971825 0.2745978 0.15299854 0.1851919 0.6756133 -0.078478426
-0.3765519 -0.06615501 0.11999736 0.2094653 0.374039 0.30658555 0.2772641 -0.021327302
-0.542354 0.16950673 -0.48155138 -0.10689752 0.088520385 0.26756135 -0.07219864 -0.00585959
0.02516026 -0.047891777 -0.26767728 -0.13882852 0.025835551 -0.22895943 -0.26301244 0.099847294
0.12439168 -0.047764476 -0.09585792 0.23252062 0.19633275 -0.4024745 0.40924656 0.022301434
0.13662168 0.43201143 0.25744712 0.11124871 0.19214725 0.40598044 -0.31582138 -0.2770552
0.30209902 0.12293452 -0.14272805 0.2328751 0.34572664 0.20943867 0.07084262 0.32475916
00000000: 6753 62bd b33d b5bd d07d b2be 9278 7f3e
00000010: 21c3 ba3e e0f2 853e eb30 d83e df1b 093f
00000020: ed08 b63e 6e66 afbd c76d d9bd c8c0 113d
00000030: d094 8ebd 0804 40bd c16c 46be bbb5 2c3e
00000040: a09c efbc ad1e a13d 919a bf3e 2f7b d73e
00000050: 94eb d3bd 487e 4d3e 1ce6 283d 3a06 1d3e
00000060: 94a1 8ebc 9233 17be 2809 0e3e 970e 21be
00000070: 7c24 86be 32e2 133e dfba 3c3d 31b2 633e
00000080: 39fc 773e 4cd6 00be 840e 6c3e 9c17 7dbe
00000090: 84ec 243e 6b77 083d 0274 8dbe 00ec 65bd
000000a0: 34db 0dbe 4cb4 063e cf6d 1c3d d399 00be
000000b0: d674 2b3e 7547 d33e 1487 443e b1f5 7c3e
000000c0: ef53 033f c8d5 2a3e adbd 863e 2d50 98bc
000000d0: 9c66 90bd e7f2 033e 6f1f d33d f9b1 84be
000000e0: d993 193e ccf1 c3be 0d9a 05bf b5e1 8f3e
000000f0: 9af7 803e 50e9 983e 84fb f13d de3f 173e
00000100: ae5b 83be 924c bb3e bc35 123d d824 babe
00000110: 9e32 dbbd 77b2 703e d00a 23be 2b5f 143e
00000120: d94f 17bf b4b4 2c3c e429 ab3e 4646 6bbe
00000130: 47ee 9c3e f7e9 ca3e 3ade 4b3e e6b4 5f3e
00000140: ce27 16be eeb6 b5bd f5d4 f7bc 7579 1d3d
00000150: 59a4 8dbd 9449 343c 4845 da3c d527 47be
00000160: a707 91bd 93ca 0d3e 9fca 2dbe 1598 8c3e
00000170: a6ab 1c3e f2a2 3d3e fef4 2c3f 4cb9 a0bd
00000180: 69cb c0be 477c 87bd 2dc1 f53d 127e 563e
00000190: 0a82 bf3e c8f8 9c3e 8ff5 8d3e 98b6 aebc
000001a0: b6d7 0abf 2c93 2d3e e78d f6be 16ed dabd
000001b0: 2d4a b53d cdfd 883e e1dc 93bd ce01 c0bb
000001c0: e41c ce3c 2b2a 44bd ff0c 89be 1029 0ebe
000001d0: 14a5 d33c 5774 6abe 91a9 86be bd7c cc3d
000001e0: 11c1 fe3d afa4 43bd 2851 c4bd e319 6e3e
000001f0: 740b 493e 2311 cebe c488 d13e 7fb1 b63c
00000200: 8ee6 0b3e 9a30 dd3e 1cd0 833e 5dd6 e33d
00000210: 40c2 443e abdc cf3e 57b3 a1be 2eda 8dbe
00000220: b9ac 9a3e 18c5 fb3d 4d27 12be cf76 6e3e
00000230: 1503 b13e 1777 563e f015 913d d546 a63e

encoder.0.bias f4 [16]
0.029237907 0.46688363 0.2280301 0.40198427 0.17726243 0.039058797 -9.348207e-05 0.23179814
0.008411654 0.44597134 0.054320462 0.05747103 0.42775452 0.39590037 0.03902225 0.19948937
00000000: 5684 ef3c 5f0b ef3e b980 693e e2d0 cd3e
00000010: 4884 353e 1efc 1f3d ce0b c4b8 7e5c 6d3e
00000020: 09d1 093c 5b56 e43e 227f 5e3d be66 6b3d
00000030: a402 db3e 74b3 ca3e cbd5 1f3d f146 4c3e

encoder.2.weight f4 [32, 16, 3, 3]
0.13777183 -0.21120429 0.05536821 -0.1096234 -0.34762648 0.2747931 0.30953786 0.5647812
0.12033167 0.07974691 -0.062510215 -0.008108997 -0.018925957 0.16359013 0.0007564976 -0.02473855
-0.06393109 0.032475453 0.21177638 0.07755424 0.2993751 0.18696441 -0.26215822 0.05229139
0.21956164 -0.021024616 0.2518094 0.102146246 -0.010185638 -0.023883743 -0.06793132 -0.08524559
-0.045423154 -0.12759894 0.0005087283 -0.08820647 0.027432818 -0.019372372 -0.05807255 0.0775412
0.21365927 -0.0060196933 -0.1453332 -0.25254416 -0.1294852 0.21215677 0.08903006 0.16979264
0.06029027 -0.45137754 0.096655495 0.14833553 0.18096852 0.26766813 -0.04888926 0.12918526
0.31372818 0.22716436 0.2770625 0.19975512 0.14542255 0.14897075 -0.19649775 -0.13206497
-0.16483575 0.047957063 0.068785235 0.06730687 -0.052687123 0.10781193 -0.20371516 -0.057824466
0.16362585 -0.0877697 0.16238727 0.057862967 -0.43856478 0.48959652 0.31072003 0.3063004
0.13684376 0.026024664 0.07475509 -0.022033734 0.0035245316 -0.0011294335 -0.047178883 -0.11128522
0.025130097 -0.06184156 0.1158343 -0.00991266 0.15123649 0.03286218 -0.5273647 0.0009718837
0.14151622 0.32267717 0.36694944 -0.040137798 0.14406554 0.034758653 0.19674094 -0.12087857
0.14605306 0.124270104 0.0007729022 0.08024152 -0.056923952 0.09706799 0.0968021 0.032518983
-0.006074331 -0.023365652 0.07825595 -0.085981 -0.072637506 -0.00035946546 -0.039081585 0.0043538045
0.18877625 0.09316645 -0.118883856 -0.1453056 -0.23054622 -0.087349065 0.1435922 -0.1461508
0.1274467 0.14292532 -0.26144254 0.12956372 0.24052814 0.21115127 0.25568056 0.06007372
0.032019682 0.12170369 -0.12954165 -0.05910345 0.104888774 0.014458371 0.25766453 0.0644372
-0.108002976 -0.6698011 -0.5167615 0.0908218 -0.3911217 -0.43358368 0.10732878 0.027036376
-0.056891724 0.123282254 0.16306953 0.1767851 0.06854106 0.014769771 0.04538778 -0.031992372
-0.10000576 -0.116749585 0.19087689 -0.16455333 -0.29013753 0.14676288 -0.49867278 -0.25613382
0.13171603 -0.17167644 0.16482806 0.17661369 0.16434567 0.05634444 0.0045273053 -0.13193236
-0.047782484 0.07463774 0.05212977 0.056154113 -0.17099038 0.260135 0.017962126 -0.29704624
0.13631038 -0.027251776 -0.15875925 0.15362218 0.11547554 -0.017445937 -0.18339263 -0.14276634
0.13648453 -0.53511506 -0.11116598 0.027989902 0.048418265 0.13290556 0.13785854 0.14570653
0.061074514 -0.19249423 -0.099388756 -0.14887823 0.27591154 -0.08879657 0.32583213 0.08443074
0.026790213 0.27944386 0.07379951 0.04936697 0.012960067 0.106115185 0.105877735 -0.22431956
0.45011416 -0.9287859 -1.0359303 0.4080815 -0.52941746 -0.88989174 0.3383796 -0.6891542
-0.32258078 0.10401292 0.028835058 0.03427083 0.007861136 -0.008273507 0.044818714 0.22797439
-0.015091093 0.0075179543 0.16437705 -0.22350948 -0.38636726 0.31174767 -0.6844166 -0.19162622
0.19762808 0.12821081 0.03545898 0.22368889 0.00064122677 0.19531816 0.030364273 -0.09494284
0.008486433 -0.02820378 -0.30606374 -0.29136515 0.1271301 0.039603014 -0.011326763 0.1376458
00000000: 0f14 0d3e f045 58be c7c9 623d 3c82 e0bd
00000010: 19fc b1be aeb1 8c3e bf7b 9e3e 8095 103f
00000020: 7370 f63d 5952 a33d 5b05 80bd 99db 04bc
00000030: 9c0a 9bbc 2c84 273e b24f 463a 80a8 cabc
00000040: 4eee 82bd fb04 053d e8db 583e c2d4 9e3d
00000050: b147 993e 9973 3f3e 9a39 86be 7f2f 563d
00000060: c4d4 603e d13b acbc 29ed 803e 0d32 d13d
00000070: aae1 26bc d7a7 c3bc 931f 8bbd 3d95 aebd
00000080: a10d 3abd 4ca9 02be 2e5c 053a 98a5 b4bd
00000090: caba e03c cfb2 9ebc 7bdd 6dbd eccd 9e3d
000000a0: 7fc9 5a3e d940 c5bb 3ad2 14be 784d 81be
000000b0: c597 04be a03f 593e 6455 b63d 1fde 2d3e
000000c0: eef2 763d f51a e7be 51f3 c53d 45e5 173e
000000d0: d04f 393e cc0b 893e 1b40 48bd 2449 043e
000000e0: fba0 a03e c69d 683e 23db 8d3e 9b8c 4c3e
000000f0: a6e9 143e ca8b 183e b536 49be 0a3c 07be
00000100: b4ca 28be a06e 443d 46df 8c3d 2fd8 893d
00000110: 74ce 57bd 80cc dc3d b59a 50be 59d9 6cbd
00000120: 898d 273e 9ac0 b3bd d948 263e b801 6d3d
00000130: 908b e0be 65ac fa3e b216 9f3e 68d3 9c3e
00000140: c520 0c3e ad31 d53c 3219 993d 1780 b4bc
00000150: d4fb 663b 8009 94ba a53e 41bd 81e9 e3bd
00000160: a2dd cd3c 934d 7dbd 893a ed3d b668 22bc
00000170: bddd 1a3e 7e9a 063d 5f01 07bf 03c6 7e3a
00000180: a1e9 103e f135 a53e cce0 bb3e 8867 24bd
00000190: eb85 133e 175f 0e3d 7576 493e 2f8f f7bd
000001a0: ef8e 153e 5381 fe3d 979c 4a3a ab55 a43d
000001b0: 1729 69bd 95cb c63d 2e40 c63d a032 053d
000001c0: 2e0b c7bb 5369 bfbc a844 a03d ce16 b0bd
000001d0: f9c2 94bd a376 bcb9 0314 20bd 5caa 8e3b
000001e0: 904e 413e 0dce be3d 6179 f3bd feca 14be
000001f0: 4f14 6cbe 11e4 b2bd d509 133e 8ea8 15be
00000200: 6381 023e 045b 123e ccdb 85be 5aac 043e
00000210: 024d 763e 0a38 583e 90e8 823e dc0f 763d
00000220: 1227 033d c93f f93d 91a6 04be 7616 72bd
00000230: edcf d63d cee2 6c3c 9bec 833e a7f7 833d
00000240: aa30 ddbd 1678 2bbf 7b4a 04bf c800 ba3d
00000250: 1a41 c8be aefe ddbe 31cf db3d 647b dd3c
00000260: 4c07 69bd 687b fc3d b3fb 263e 2707 353e
00000270: 415f 8c3d e9fc 713c 89e8 393d 6f0a 03bd
00000280: d2cf ccbd 681a efbd 3b75 433e ab80 28be
00000290: e88c 94be 0249 163e 0a52 ffbe f923 83be
000002a0: 91e0 063e f3cb 2fbe b0c8 283e 38da 343e
000002b0: 3b4a 283e 6dc9 663d ca59 943b 4719 07be
000002c0: 91b7 43bd acdb 983d 0786 553d db01 663d
000002d0: 1a18 2fbe 6a30 853e 4f25 933c 7216 98be
000002e0: f394 0b3e 1e3f dfbc c991 22be 224f 1d3e
000002f0: 717e ec3d c8ea 8ebc 47cb 3bbe 5731 12be
00000300: 9ac2 0b3e 4dfd 08bf fdaa e3bd 144b e53c
00000310: 3b52 463d 6518 083e ca2a 0d3e 1834 153e
00000320: 4529 7a3d 351d 45be 558c cbbd 8973 18be
00000330: 4744 8d3e fada b5bd 78d3 a63e 06ea ac3d
00000340: 2677 db3c 4413 8f3e 3324 973d 0535 4a3d
00000350: 7656 543c eb52 d93d 6dd6 d83d 07b4 65be
00000360: 5d75 e63e eac4 6dbf 5d99 84bf 0ff0 d03e
00000370: e787 07bf f2cf 63bf 1740 ad3e 696c 30bf
00000380: 4f29 a5be ba04 d53d 8037 ec3c 925f 0c3d
00000390: ffcb 003c 9a8d 07bc d493 373d 1e72 693e
000003a0: a240 77bc 2c59 f63b 7552 283e abdf 64be
000003b0: eed1 c5be 649d 9f3e ed35 2fbf aa39 44be
000003c0: 045f 4a3e b249 033e 6f3d 113d b30e 653e
000003d0: 0018 283a 7c01 483e 7fbe f83c 6471 c2bd
000003e0: ae0a 0b3c 9d0b e7bc 63b4 9cbe d02d 95be
000003f0: 652e 023e c536 223d e393 39bc 05f3 0c3e

encoder.2.bias f4 [32]
0.032945145 -0.025635649 0.008878982 -0.037289605 -0.070211634 -0.043883726 -0.05247239 0.025206557
0.005271297 0.054340485 0.004934764 -0.11993533 -0.07060355 0.10094877 -0.0053115436 -0.012503327
0.054184392 -0.06985862 -0.04409468 0.015518273 -0.03622575 -0.06960805 0.066781245 -0.034080748
-0.05504594 -0.06732432 0.06022694 -0.015284906 0.02623084 0.012808833 -0.069005415 -0.020221569
00000000: 7df1 063d da01 d2bc 2679 113c fcbc 18bd
00000010: 1ecb 8fbd 6cbf 33bd 4aed 56bd fb7d ce3c
00000020: d8ba ac3b 2194 5e3d cdb3 a13b a7a0 f5bd
00000030: 9898 90bd 3bbe ce3d 750c aebb c1da 4cbc
00000040: 74f0 5d3d 0912 8fbd a09c 34bd 5b40 7e3c
00000050: 7461 14bd aa8e 8ebd 9bc4 883d 4198 0bbd
00000060: da77 61bd 55e1 89bd 86b0 763d 8b6d 7abc
00000070: 0fe2 d63c 24dc 513c b652 8dbd b4a7 a5bc

encoder.4.weight f4 [64, 32, 7, 7]
-0.012626081 0.118664645 0.08632041 -0.33287433 -0.12603499 -0.10901239 -0.18071055 -0.035139367
0.047069907 -0.059919413 0.20558631 0.0144811 -0.17693132 -0.03930722 -0.0266923 -0.0055625355
0.041356143 0.1841557 -0.17451522 -0.046287175 0.02815318 0.11698031 -0.026757497 -0.014068276
0.111669846 0.075686716 0.17349754 -0.03710057 0.15930285 -0.065081425 -0.18854177 0.033409026
0.2559036 -0.054273497 0.02682632 0.12220979 0.093850985 -0.023256412 0.0938934 0.19113137
-0.12731855 -0.0088725705 0.09357837 -0.050638683 -0.010286044 -0.1868289 -0.11915787 -0.05981249
-0.078658 0.00421227 0.07539655 0.14625627 0.23190725 -0.14265959 0.043495417 -0.025826966
0.010400554 -0.069734894 -0.058921173 0.19471632 -0.08567656 0.077166505 0.04469904 0.010378162
0.08159917 -0.025644083 0.06040742 0.17982253 0.037788514 -0.04596187 0.027410746 0.01925925
-0.16542721 0.039329343 0.08926851 0.14924183 -0.076899536 0.052697316 0.026223501 -0.16689938
-0.09420385 0.10034052 -0.08433776 0.020220766 0.07541711 0.024028648 0.122253515 -0.041756768
-0.22867934 0.079692736 0.035202358 0.03954111 -0.07752246 0.093274996 -0.2121224 -0.091233976
0.018006843 -0.011159625 1.7736784e-05 0.005492402 0.003480133 0.011426401 0.026095686 0.0028217593
-0.004996369 0.013505765 -0.020680023 -0.17879139 -0.11374345 -0.22789235 0.07525615 0.04626591
0.024698554 0.035484366 -0.061613724 -0.14082289 -0.007771597 0.15773901 -0.003534478 -0.006959813
0.0808104 -0.071423724 0.03549253 0.11583062 0.028864276 -0.08045824 0.01916736 0.040091164
-0.04216075 0.1096541 -0.08020848 -0.21712576 -0.032072186 0.020320376 -0.1029407 -0.04115613
0.03160302 -0.06356146 -0.21621537 0.019950008 0.016063988 0.023505649 -0.055256043 -0.13480161
-0.1593615 -0.07008378 0.03850966 0.0020092237 0.07174889 0.06250082 0.16727352 -0.12191247
0.16702476 0.00084806076 -0.017125882 -0.09326621 -0.18174016 0.1649753 -0.1498743 0.014136714
0.043339565 4.0826297e-05 0.06112223 -0.04842311 0.08004006 -0.09981245 -0.023063911 -0.033858497
-0.01227749 -0.049562465 -0.053918313 0.10333426 0.04375425 0.22591062 -0.18767293 0.024049956
0.06359816 -0.100825265 -0.03230629 0.123392984 -0.06997564 -0.00011765027 0.00016722344 -0.0271072
-0.0013827286 0.007876751 -0.16462043 0.117479764 -0.003577979 -0.0029045744 -0.059753194 0.0675598
-0.22467835 0.062752165 -0.003259771 0.052818272 0.016824668 -0.01688333 0.019191017 0.00124009
-0.00021382292 0.0332612 -0.009231164 0.0022853096 -0.0008929231 0.020419797 0.011232294 -0.010874307
-0.0057534925 0.020162893 -0.008277041 -0.0096856775 -0.0038968164 -0.013768319 -0.010280174 0.009115668
0.02965956 -0.005171638 0.023464957 0.0008543437 0.014567722 0.030640686 0.0029559701 0.024775647
0.012492105 -0.014545659 -0.013745595 0.012266725 0.003338173 -0.013012498 0.00845826 -0.009799985
0.026616534 0.031826254 0.007981468 -0.0067784395 0.002464006 0.00473185 0.031085275 0.018301295
0.02185122 -0.015738536 0.00824575 0.024520151 -0.0033006724 -0.013394525 0.0005165018 0.018363642
0.016909285 0.044088442 -0.0080102505 0.032829586 -0.0013698228 -0.038368195 -0.19734012 -0.055133354
00000000: 9fdd 4ebc 7306 f33d c1c8 b03d 816e aabe
00000010: 510f 01be e341 dfbd 300c 39be 4cee 0fbd
00000020: 60cc 403d 0f6e 75bd 3885 523e 2342 6d3c
00000030: 7c2d 35be 9c00 21bd cfa9 dabc ee45 b6bb
00000040: 0f65 293d 5093 3c3e 1eb4 32be 9f97 3dbd
00000050: 7fa1 e63c 5f93 ef3d 8a32 dbbc a07e 66bc
00000060: 29b3 e43d a301 9b3d 57a9 313e c4f6 17bd
00000070: 4920 233e 6949 85bd 1811 41be e7d7 083d
00000080: cc05 833e e34d 5ebd dfc2 db3c 2049 fa3d
00000090: f234 c03d 3b84 bebc 2f4b c03d f1b7 433e
000000a0: cb5f 02be 425e 11bc 04a6 bf3d 826a 4fbd
000000b0: cc86 28bc 1350 3fbe 0b09 f4bd f1fd 74bd
000000c0: 7217 a1bd 1507 8a3b 8269 9a3d 34c4 153e
000000d0: 1879 6d3e 5b15 12be 4028 323d 1393 d3bc
000000e0: 1667 2a3c 2bd1 8ebd 5457 71bd b763 473e
000000f0: 3177 afbd 7909 9e3d 5716 373d 2b09 2a3c
00000100: 771d a73d 8a13 d2bc c56d 773d 6623 383e
00000110: 21c8 1a3d 8442 3cbd 808c e03c 93c5 9d3c
00000120: c065 29be ce17 213d 69d2 b63d dad2 183e
00000130: 817d 9dbd 24d9 573d abd2 d63c ace7 2abe
00000140: f3ed c0bd 557f cd3d 47b9 acbd 05a6 a53c
00000150: 4974 9a3d bad7 c43c 0d60 fa3d 2509 2bbd
00000160: eb2a 6abe f235 a33d 5930 103d dcf5 213d
00000170: 18c4 9ebd f606 bf3d 9d36 59be e1d8 babd
00000180: 1683 933c dcd6 36bc 74c9 9437 9bf9 b33b
00000190: f112 643b cd35 3b3c 9fc6 d53c 44ed 383b
000001a0: 95b8 a3bb 4947 5d3c 2769 a9bc 1715 37be
000001b0: 53f2 e8bd 9d5c 69be e51f 9a3d 5381 3d3d
000001c0: 9f54 ca3c 0e58 113d ac5e 7cbd e033 10be
000001d0: e1a8 febb 5686 213e b3a2 67bb 250f e4bb
000001e0: ec7f a53d 9a46 92bd 9d60 113d 9b38 ed3d
000001f0: c674 ec3c 4ac7 a4bd de04 9d3c a236 243d
00000200: c0b0 2cbd 5492 e03d 5844 a4bd 3756 5ebe
00000210: 205e 03bd eb76 a63c 93d2 d2bd 5593 28bd
00000220: 2b72 013d 832c 82bd 9067 5dbe 336e a33c
00000230: a098 833c eb8e c03c 2954 62bd 6f09 0abe
00000240: a92f 23be 1688 8fbd 4ebc 1d3d 2ead 033b
00000250: 15f1 923d 6e00 803d c049 2b3e 3fad f9bd
00000260: 8a08 2b3e 6550 5e3a 944b 8cbc 5b02 bfbd
00000270: 181a 3abe 49ef 283e a678 19be ad9d 673c
00000280: d484 313d e73c 2b38 4e5b 7a3d 5057 46bd
00000290: 0bec a33d 786a ccbd 87f0 bcbc 35af 0abd
000002a0: 8727 49bc 0302 4bbd 73d9 5cbd eaa0 d33d
000002b0: a837 333d 1d55 673e 552d 40be 6a04 c53c
000002c0: c13f 823d 7a7d cebd 9a53 04bd 76b5 fc3d
000002d0: 634f 8fbd 02bb f6b8 b358 2f39 eb0f debc
000002e0: ac3c b5ba 7d0d 013c 4292 28be 3b99 f03d
000002f0: 877c 6abb ac5a 3ebb c4bf 74bd cb5c 8a3d
00000300: 1512 66be 3584 803d e2a1 55bb f957 583d
00000310: e3d3 893c e94e 8abc 7b36 9d3c 848a a23a
00000320: a735 60b9 e53c 083d 4f3e 17bc 22c5 153b
00000330: 0e13 6aba 6b47 a73c a807 383c 262a 32bc
00000340: cb87 bcbb a72c a53c 6d9c 07bc adb0 1ebc
00000350: bb61 7fbb 8494 61bc 2d6e 28bc e259 153c
00000360: 9bf8 f23c d876 a9bb 9539 c03c 09f6 5f3a
00000370: 74ad 6e3c 2d02 fb3c f3b8 413b 4cf6 ca3c
00000380: b0ab 4c3c ea50 6ebc 3435 61bc 60fa 483c
00000390: 40c5 5a3b 5f32 55bc 8494 0a3c 1e90 20bc
000003a0: eb0a da3c 3f5c 023d b4c4 023c ac1d debb
000003b0: 297b 213b a20d 9b3b 8ca6 fe3c 99ec 953c
000003c0: 5401 b33c 1aee 80bc 2f19 073c 7cde c83c
000003d0: 1850 58bb b674 5bbc d965 073a 596f 963c
000003e0: 5785 8a3c 1596 343d 6d3d 03bc 5178 063d
000003f0: a08b b3ba f827 1dbd 8713 4abe 83d3 61bd

encoder.4.bias f4 [64]
0.0028173127 0.007108737 -0.017370539 0.014013056 -0.014907888 -0.009126658 -0.047706798 -0.014440861
0.021789644 0.03905157 -0.004488856 0.02554077 0.024057077 -0.013701463 -0.0060954452 -0.02971362
-0.005211829 -0.0017811013 0.021058409 0.004976674 -0.013341179 0.006953225 -0.005232476 -0.005611673
-0.03157022 -0.021979675 -0.015673669 0.024067685 -0.009605618 0.024795305 -0.010449183 -0.031919863
-0.01913124 0.046586767 -0.009618325 0.019562049 -0.004932455 0.01260343 -0.0116393985 -0.033229377
-0.007803197 0.024689227 0.021536509 0.056503687 -0.02354142 -0.010157711 0.008810228 0.013943341
-0.0112641975 -0.013658937 -0.00020938466 0.02853193 0.011461909 0.018662948 0.008836682 0.008509751
-0.024617849 -0.0022604307 -0.0069552916 0.008794083 -0.026102925 0.003591417 0.037543397 0.017519543
00000000: aaa2 383b 68f0 e83b a94c 8ebc 0497 653c
00000010: 3740 74bc fa87 15bc 3468 43bd 5c99 6cbc
00000020: 3280 b23c 8af4 1f3d 4117 93bb e03a d13c
00000030: 5913 c53c 1a7c 60bc 4dbc c7bb fa69 f3bc
00000040: fec7 aabb d873 e9ba af82 ac3c 5e13 a33b
00000050: f694 5abc e1d7 e33b 3175 abbb 20e2 b7bb
00000060: c64f 01bd b80e b4bc 1166 80bc 9829 c53c
00000070: e260 1dbc 861f cb3c 0d33 2bbc 67be 02bd
00000080: 1eb9 9cbc c4d1 3e3d 2e96 1dbc 9740 a03c
00000090: 6ea0 a1bb 9e7e 4e3c 2db3 3ebc 871b 08bd
000000a0: f6b1 ffbb 1041 ca3c 556d b03c 6970 673d
000000b0: f0d9 c0bc 876c 26bc c658 103c 9c72 643c
000000c0: 788d 38bc bcc9 5fbc 448e 5bb9 cbbb e93c
000000d0: bbca 3b3c 0ae3 983c bbc7 103c 7c6c 0b3c
000000e0: 5fab c9bc bc23 14bb 37e9 e3bb 0f15 103c
000000f0: cdd5 d5bc fb5d 6b3b 1bc7 193d 2585 8f3c

decoder.0.weight f4 [64, 32, 7, 7]
-0.032688525 0.3247453 -0.20397723 0.4086234 0.15175383 -0.048622124 0.0019200364 -0.06907238
-0.11038297 -0.14573675 -0.2188894 0.03149553 -0.07668819 -0.03986227 0.16223992 0.09804628
-0.09502076 0.040829062 0.092761 0.009992134 -0.00196097 0.15098254 0.012517168 -0.04220236
-0.0024463746 -0.09630732 -0.018509092 0.05040926 -0.18419729 0.13476281 0.078733966 -0.03335209
-0.0065992144 0.06505334 0.037292767 -0.027296226 -0.114581965 -0.096444495 -0.01623213 -0.16512676
-0.018007973 -0.05799059 -0.08267083 -0.018776072 -0.026795723 0.03469916 -0.10331828 -0.072408095
0.041285835 0.0307851 -0.09683787 0.039047644 -0.031542107 -0.019459678 -0.12157869 -0.07636963
-0.05652904 0.15318708 0.118305564 0.29191205 0.12536685 -0.12713578 -0.07497218 0.008865042
-0.08603697 -0.049855493 0.025259215 -0.092010915 0.13626012 0.24521947 0.07675268 -0.053410918
-0.07702937 -0.037683778 0.17487407 -0.044269726 -0.09573953 -0.0859232 -0.062118903 -0.10769133
0.007248138 0.045777034 -0.057838984 -0.020770734 0.023720156 -0.06985764 0.112991035 0.0045362334
-0.043950565 -0.047581065 -0.1651414 -0.01462515 -0.0013079185 0.004828298 -0.23413429 -0.087407626
-0.022674598 -0.1945995 0.1676539 -0.1100183 -0.27281323 0.02776951 -0.012165524 0.030868823
0.064392895 0.11658897 -0.020876918 -0.18491027 -0.100686684 -0.3727126 0.09085123 0.11882329
0.08422607 0.10229394 0.029773518 -0.010194174 -0.0538674 0.1397714 -0.1026529 -0.052175503
0.0053277044 -0.0665451 -0.005982118 0.013029403 -0.060502194 0.0039942865 0.14510652 0.10118818
0.020575976 0.007460807 -0.016331153 -0.064909525 0.009227073 0.009122878 -0.17974834 0.017016547
-0.03712004 -0.09467895 -0.0358578 -0.050241962 0.1836709 0.06301456 0.23304853 -0.028264048
0.16113113 0.23950078 0.14805232 -0.03238821 -0.012419107 -0.03236321 0.028672772 -0.017149553
-0.23235561 -0.1502178 -0.043810427 -0.07113365 0.20436676 0.13273937 0.14599544 -0.016918888
0.0044640116 0.010288743 -0.06911491 0.11570252 0.07396333 -0.017273407 -0.074136816 0.023099521
-0.02125882 -0.097813606 -0.06716649 -0.062450193 -0.10159137 -0.074302316 0.09264696 -0.0029639206
0.00015212366 -0.01863916 -0.06870464 -0.10103757 0.10174975 -0.01797804 -0.03473779 -0.13478586
0.05816789 -0.08135965 0.13033569 0.26777586 0.020635348 -0.018362679 -0.019609297 -0.12817721
0.02936709 -0.09331966 -0.016104432 -0.27823263 -0.016316025 -0.09645285 -0.088523455 0.4758625
0.027879428 0.1164528 0.14938322 0.094802186 -0.18844718 -0.3130938 -0.046533134 -0.012930298
0.14459446 0.098801695 0.113095514 -0.04123123 -0.033311825 -0.0061189267 -0.019907251 0.09770429
-0.053612296 0.075762086 -0.018295279 -0.0052724252 0.13316266 -0.016440148 0.046347994 -0.07773336
0.009549472 -0.086481124 -0.014058257 -0.008190762 -0.037952337 -0.14759395 0.111253366 -0.0717937
-0.11561491 -0.033018664 -0.018770935 -0.03826419 -0.27972713 0.15557395 0.03294909 -0.06498226
0.15864687 -0.11572108 0.0155465985 0.22080761 -0.020352388 -0.029475085 -0.0056620147 0.020382201
0.0013091168 -0.044200983 -0.014137338 -0.099232376 0.0317966 -0.031711344 0.10537678 -0.070312105
00000000: 67e4 05bd 0445 a63e 68df 50be 1637 d13e
00000010: 5b65 1b3e fe27 47bd bba9 fb3a d275 8dbd
00000020: 7710 e2bd 043c 15be 8b24 60be 7501 013d
00000030: b30e 9dbd 9f46 23bd 3922 263e 7dcc c83d
00000040: 3f9a c2bd 603c 273d 7bf9 bd3d 0cb6 233c
00000050: 9e83 00bb 2b9b 1a3e cf14 4d3c 62dc 2cbd
00000060: 5b53 20bb c63c c5bd 61a0 97bc f179 4e3d
00000070: 379e 3cbe 43ff 093e 463f a13d 339c 08bd
00000080: 393e d8bb af3a 853d 4dc0 183d 569c dfbc
00000090: f3a9 eabd b184 c5bd 3ef9 84bc fd16 29be
000000a0: 7585 93bc 8a87 6dbd 534f a9bd 47d0 99bc
000000b0: b482 dbbc b520 0e3d 8998 d3bd b24a 94bd
000000c0: 561b 293d 0931 fc3c ef52 c6bd 6cf0 1f3d
000000d0: 4c32 01bd e769 9fbc 40fe f8bd ae67 9cbd
000000e0: ff8a 67bd 13dd 1c3e 304a f23d 7f75 953e
000000f0: 2b60 003e e22f 02be 048b 99bd ae3e 113c
00000100: 2734 b0bd 4635 4cbd 6aec ce3c 3870 bcbd
00000110: c687 0b3e d01a 7b3e 8230 9d3d 68c5 5abd
00000120: 93c1 9dbd 4e5a 1abd 3012 333e 2c54 35bd
00000130: 1613 c4bd 81f8 afbd 6470 7ebd 468d dcbd
00000140: ca81 ed3b b380 3b3d 92e8 6cbd 6327 aabc
00000150: c650 c23c 8611 8fbd d867 e73d afa4 943b
00000160: 8205 34bd 5de4 42bd d41a 29be 539e 6fbc
00000170: 766e abba b336 9e3b e6c0 6fbe c502 b3bd
00000180: 14c0 b9bc 1745 47be 77ad 2b3e 4651 e1bd
00000190: 2dae 8bbe e27c e33c e851 47bc 9de0 fc3c
000001a0: 6ce0 833d 33c6 ee3d 1206 abbc 1e59 3dbe
000001b0: d234 cebd 30d4 bebe 3610 ba3d a059 f33d
000001c0: b87e ac3d 7c7f d13d 98e7 f33c 7705 27bc
000001d0: 10a4 5cbd 3c20 0f3e af3b d2bd fbb5 55bd
000001e0: 0694 ae3b cc48 88bd a505 c4bb 4779 553c
000001f0: 26d1 77bd 81e2 823b ce96 143e c03b cf3d
00000200: f38e a83c c979 f43b e9c8 85bc 49ef 84bd
00000210: 262d 173c 2078 153c f30f 38be 4966 8b3c
00000220: 2f0b 18bd 0ae7 c1bd a1df 12bd 84ca 4dbd
00000230: 3914 3c3e c70d 813d 46a4 6e3e 018a e7bc
00000240: 8fff 243e b13f 753e 079b 173e 80a9 04bd
00000250: 8379 4bbc 498f 04bd 29e3 ea3c 387d 8cbc
00000260: a1ee 6dbe b2d2 19be 9072 33bd 85ae 91bd
00000270: 8545 513e d4ec 073e d47f 153e 7b99 8abc
00000280: d846 923b 1e92 283c 1e8c 8dbd 71f5 ec3d
00000290: 167a 973d f680 8dbc 0bd5 97bd 353b bd3c
000002a0: fa26 aebc 8052 c8bd 968e 89bd c6cb 7fbd
000002b0: 230f d0bd d02b 98bd b0bd bd3d 563e 42bb
000002c0: 6283 1f39 27b1 98bc 05b5 8cbd c9ec cebd
000002d0: 2c62 d03d af46 93bc 3649 0ebd 4e05 0abe
000002e0: 7441 6e3d e39f a6bd b876 053e eb19 893e
000002f0: 760b a93c 546d 96bc ada3 a0bc e340 03be
00000300: 4093 f03c 611e bfbd 71ed 83bc 8274 8ebe
00000310: 2fa9 85bc 1289 c5bd c94b b5bd 40a4 f33e
00000320: 6663 e43c ce7e ee3d eaf7 183e a627 c23d
00000330: 4cf8 40be d54d a0be 8799 3ebd 9ad9 53bc
00000340: 9210 143e 8b58 ca3d 9f9e e73d 14e2 28bd
00000350: fb71 08bd 4781 c8bb 8814 a3bc 3019 c83d
00000360: 9198 5bbd 2729 9b3d fbdf 95bc 4fc4 acbb
00000370: cb5b 083e 7dad 86bc 65d7 3d3d ab32 9fbd
00000380: 6375 1c3c 041d b1bd 9b54 66bc 8c32 06bc
00000390: e973 1bbd de22 17be ced8 e33d 9308 93bd
000003a0: 83c7 ecbd 943e 07bd 81c5 99bc e9ba 1cbd
000003b0: 6538 8fbe c74e 1f3e a0f5 063d 6b15 85bd
000003c0: 5374 223e 2cff ecbd 29b7 7e3c 641b 623e
000003d0: 0dba a6bc bc75 f1bc 6c88 b9bb 93f8 a63c
000003e0: ac96 ab3a 170c 35bd 4ba0 67bc 583a cbbd
000003f0: 273d 023d c1e3 01bd c8cf d73d cbff 8fbd

decoder.0.bias f4 [32]
0.20379776 0.2651253 0.21016365 -0.025686517 0.126608 0.0780739 0.037384752 0.06516339
0.1300406 -0.023572117 0.18677871 0.06818766 0.11665098 0.09783236 0.06923525 0.15841013
0.06271363 0.23756786 0.2526012 -0.037616152 0.043670364 0.17231694 -6.722449e-05 0.09983633
0.122390494 0.17742118 0.064749524 0.15947492 0.2113052 0.21346448 0.24595734 0.13239563
00000000: 5cb0 503e 81be 873e 2435 573e 886c d2bc
00000010: 87a5 013e 35e5 9f3d c120 193d 6274 853d
00000020: 5d29 053e 501a c1bc eb42 3f3e f9a5 8b3d
00000030: b6e6 ee3d 555c c83d 36cb 8d3d 4436 223e
00000040: 0170 803d fd44 733e f254 813e 6513 1abd
00000050: b2df 323d da73 303e e0fa 8cb8 fd76 cc3d
00000060: dea7 fa3d e6ad 353e 669b 843d 654d 233e
00000070: 6460 583e 6f96 5a3e 3edc 7b3e b892 073e

decoder.2.weight f4 [32, 16, 3, 3]
0.024606545 0.036004912 0.054753512 -0.0979394 0.14541475 0.27219677 -0.009129589 0.13301145
0.19364212 -0.03477149 -0.060499515 0.042047083 0.0411437 -0.0223473 -0.039659135 0.030724397
-0.20053296 0.00053537986 0.032457378 0.092833966 0.12730236 0.1440893 0.08470791 0.077444784
0.07243836 -0.08546304 0.10818942 -0.1900418 -0.08878366 -0.035781566 -0.11053661 -0.016926201
0.13502422 -0.12187187 0.22093783 0.04758952 -0.124227434 -0.10566525 0.032310855 -0.1294605
0.10068693 0.08809708 -0.15233822 0.049703304 0.116805516 0.19901778 -0.01771434 0.12547682
0.10215543 -0.15580206 0.02935985 -0.03395224 0.18719985 0.42401096 -0.08314122 0.039121762
0.07868127 -0.11017773 -0.012085642 -0.05585723 -0.023984972 0.10240096 0.039279584 -0.16796012
0.04329494 -0.044920065 -0.14743707 0.26771274 -0.046534877 0.072621696 -0.059384663 -0.29958126
-0.02084907 -0.034493316 -0.041188292 -0.11228911 -0.026922544 0.14618477 0.26166016 -0.2580475
-0.034590222 0.035067692 -0.1029474 -0.1257348 -0.087325715 0.022690983 0.021537919 -0.17317133
0.014759077 -0.00653415 -0.003100098 0.17387117 0.062318366 0.12089458 0.2856888 -0.057369653
0.15760934 -0.07729744 -0.023008876 -0.038337663 -0.031812634 0.041434795 -0.014900988 0.13382235
0.016047226 -0.0014026663 0.17364071 0.09100326 0.085040525 -0.037445508 -0.10934385 0.0818777
-0.04196336 -0.059418067 -0.03774594 -0.14441656 -0.1341255 -0.04645149 0.07702636 -0.06418172
-0.046433367 0.1501301 0.07620449 0.07407138 0.09999841 -0.04165168 0.019638922 0.024617406
-0.0113748135 -0.043219067 -0.085308224 0.0304823 -0.07388549 -0.044424754 0.1220073 -0.13384776
-0.03386224 0.06326683 0.055823214 -0.030646613 -0.025100105 0.2261981 -0.16932967 -0.1307737
0.023714665 0.23830102 0.13081819 0.014648173 0.0072098305 -0.019859761 0.084550284 0.025582433
0.10378136 -0.10463596 -0.044452444 0.088491455 0.1499186 0.14359465 -0.06311214 -0.05287522
-0.053780213 0.016587242 0.03897181 0.02291175 0.16981278 0.03035648 -0.20761466 -0.057674028
0.15443462 -0.1278729 -0.040793803 0.037819557 0.22634953 0.105458334 -0.10262641 -0.048906308
0.065789305 0.036743008 0.265661 0.247831 0.03493206 0.088066936 0.13939263 -0.13784797
-0.13681985 0.09345164 -0.07114265 -0.11108058 0.110648565 -0.055163313 -0.11589152 -0.07181414
-0.042769052 0.11256996 0.11382138 -0.0034983547 -0.07160023 -0.06811919 0.13544379 0.16346626
0.022907756 0.054677937 -0.004411349 0.10163209 -0.11822035 -0.05663098 -0.06261921 -0.07955965
0.030977558 -0.07897952 0.05279573 0.11961744 0.02466194 -0.08220129 0.14024264 0.090019286
0.16429594 0.00012492831 0.080648884 0.051505152 -0.032287885 -0.0839402 0.124270305 0.097410604
-0.042710006 -0.07616979 -0.0898951 -0.06089318 -0.026396442 0.22993238 0.19054429 -0.028062534
-0.035078023 0.056862317 0.11596653 0.19227219 0.08444126 -0.007066667 -0.1700659 -0.09903721
0.01688251 0.012805573 -0.0028543782 -0.004401293 -0.018150158 0.09294111 0.2264444 -0.034703445
0.18771368 0.09049879 0.017087854 0.0030437424 -0.089171715 -0.1510468 -0.17694537 0.07815918
00000000: aa93 c93c e379 133d 3845 603d 7494 c8bd
00000010: 9be7 143e 605d 8b3e 4694 15bc 2734 083e
00000020: 1f4a 463e 8d6c 0ebd 57ce 77bd 9039 2c3d
00000030: 4c86 283d af11 b7bc 9e71 22bd bbb1 fb3c
00000040: 8358 4dbe bc58 0c3a 07f2 043d bc1f be3d
00000050: 8d5b 023e 258c 133e 577b ad3d 5f9b 9e3d
00000060: 905a 943d 3f07 afbd 6a92 dd3d 519a 42be
00000070: 35d4 b5bd b18f 12bd 0561 e2bd d1a8 8abc
00000080: ca43 0a3e f597 f9bd 873d 623e 3bed 423d
00000090: f46a febd 0667 d8bd 6358 043d 4b91 04be
000000a0: f334 ce3d 3e6c b43d 8dfe 1bbe b195 4b3d
000000b0: bb37 ef3d 51cb 4b3e aa1d 91bc ff7c 003e
000000c0: de36 d13d 938a 1fbe 1184 f03c 8111 0bbd
000000d0: 51b1 3f3e f717 d93e f245 aabd 243e 203d
000000e0: a523 a13d dda4 e1bd db02 46bc 8dca 64bd
000000f0: 227c c4bc 98b7 d13d a1e3 203d bdfd 2bbe
00000100: 0956 313d 1afe 37bd bef9 16be a511 893e
00000110: 5b9b 3ebd afba 943d 553d 73bd b762 99be
00000120: abcb aabc dd48 0dbd 0eb5 28bd d5f7 e5bd
00000130: ab8c dcbc 76b1 153e 52f8 853e cd1e 84be
00000140: 7aae 0dbd 24a3 0f3d 16d6 d2bd a0c0 00be
00000150: d3d7 b2bd 71e2 b93c 4a70 b03c d353 31be
00000160: 0ed0 713c 6c1c d6bb 042b 4bbb 490b 323e
00000170: 8b41 7f3d 9497 f73d cd45 923e 71fc 6abd
00000180: 5864 213e 1f4e 9ebd 1c7d bcbc f407 1dbd
00000190: f74d 02bd 88b7 293d 4623 74bc ba08 093e
000001a0: 7975 833c acd9 b7ba dfce 313e eb5f ba3d
000001b0: ba29 ae3d 7660 19bd abef dfbd 7faf a73d
000001c0: c6e1 2bbd 5c60 73bd 7d9b 1abd efe1 13be
000001d0: 3258 09be eb43 3ebd ffbf 9d3d b571 83bd
000001e0: ea30 3ebd b4bb 193e 1a11 9c3d bcb2 973d
000001f0: f7cb cc3d f49a 2abd cee1 a03c 71aa c93c
00000200: 6d5d 3abc 7a06 31bd 14b6 aebd 04b6 f93c
00000210: 4751 97bd bbf6 35bd f7de f93d 630f 09be
00000220: 22b3 0abd 0a92 813d e2a6 643d 9b0e fbbc
00000230: bc9e cdbc 7aa0 673e c264 2dbe 8ae9 05be
00000240: 4245 c23c 2f05 743e 34f5 053e e4fe 6f3c
00000250: 7140 ec3b f0b0 a2bc b328 ad3d 4092 d13c
00000260: 528b d43d 614b d6bd c413 36bd 023b b53d
00000270: 4384 193e 7a0a 133e f040 81bd b093 58bd
00000280: a448 5cbd f8e1 873c e8a0 1f3d 6cb1 bb3c
00000290: 67e3 2d3e 27ae f83c f098 54be 9a3b 6cbd
000002a0: 1c24 1e3e 1df1 02be 6717 27bd aee8 1a3d
000002b0: 2cc8 673e 8afa d73d cc2d d2bd fb51 48bd
000002c0: 8bbc 863d d67f 163d b804 883e 69c7 7d3e
000002d0: eb14 0f3d 705c b43d f1bc 0e3e 0528 0dbe
000002e0: 811a 0cbe 9363 bf3d 3db3 91bd 377e e3bd
000002f0: b79b e23d edf2 61bd 8958 edbd 4b13 93bd
00000300: 9a2e 2fbd 148b e63d 2f1b e93d a744 65bb
00000310: 24a3 92bd 1382 8bbd c7b1 0a3e b363 273e
00000320: 0ca9 bb3c f9f5 5f3d 148d 90bb 7c24 d03d
00000330: 831d f2bd e3f5 67bd 803e 80bd 2bf0 a2bd
00000340: a6c4 fd3c 04c0 a1bd 5640 583d fdf9 f43d
00000350: d607 ca3c 2659 a8bd c49b 0f3e 085c b83d
00000360: 323d 283e 30ff 0239 3e2b a53d 11f7 523d
00000370: 4d40 04bd d7e8 abbd 6e81 fe3d 367f c73d
00000380: b0f0 2ebd e8fe 9bbd ec1a b8bd 216b 79bd
00000390: 5a3d d8bc 6573 6b3e 0b1e 433e 66e3 e5bc
000003a0: f9ad 0fbd 76e8 683d dc7f ed3d 00e3 443e
000003b0: 8aef ac3d 808f e7bb c125 2ebe 05d4 cabd
000003c0: 314d 8a3c 77ce 513c 8510 3bbb b938 90bb
000003d0: a4af 94bc e957 be3d 0ae1 673e 3325 0ebd
000003e0: 0438 403e 6e57 b93d d4fb 8b3c 8679 473b
000003f0: a99f b6bd 03ac 1abe 2b31 35be ec11 a03d

decoder.2.bias f4 [16]
0.30515683 0.08411281 0.08945542 0.61264944 -0.180916 0.42944586 -0.23553023 -0.019900277
0.34574988 -0.040526018 0.60254276 0.21050312 0.016837934 0.22440182 0.12473676 -0.055713937
00000000: 843d 9c3e 5643 ac3d 6734 b73d 98d6 1c3f
00000010: 0b42 39be 54e0 db3e d62e 71be e805 a3bc
00000020: 2106 b13e 9cfe 25bd 3e40 1a3f 218e 573e
00000030: b5ef 893c 97c9 653e fd75 ff3d 4c34 64bd

decoder.4.weight f4 [16, 1, 3, 3]
-0.007196681 -0.13702434 -0.04062075 -0.28006822 -0.6012585 -0.22724818 -0.2800257 -0.4997507
-0.15592441 -0.06472751 -0.2978965 -0.10971685 -0.08031434 -0.4510645 -0.17546535 -0.006113036
-0.19608086 -0.07027895 -0.19464125 0.04902735 0.19099028 -0.14804074 0.2317333 0.25423443
-0.05425516 0.08669649 0.06546216 0.13632968 0.24623299 0.09594765 0.14832431 0.032485466
-0.13100274 -0.052197114 -0.295909 -0.27958634 -0.13818926 -0.16415672 -0.23030119 -0.026916267
0.03152941 -0.33909887 -0.08214239 -0.13004564 -0.26829696 -0.2573566 -0.30420366 -0.050703157
-0.24351987 -0.106086306 0.069668286 0.024121547 0.13801809 0.08839114 -0.22650884 -0.15616989
-0.10062639 -0.38133714 -0.08674429 0.05773125 -0.29456186 -0.22326268 -0.092604026 -0.08686398
-0.012802953 0.09567739 0.11636721 0.34068272 0.30193105 0.18924032 0.362457 0.20387867
0.030282272 0.16959614 0.17354661 -0.13396615 0.016030202 0.15490976 -0.1956173 -0.13641201
0.018071312 -0.010908061 -0.0081620505 -0.2127368 -0.22558163 -0.34159094 -0.3472253 -0.06915547
-0.04758252 -0.07750533 0.11199167 0.15172029 -0.055181954 0.1321592 0.029869962 -0.3072711
-0.077315316 -0.30651605 -0.37350228 0.05534759 0.072146006 -0.01442319 -0.12954743 -0.33934936
-0.2857034 0.0076360176 -0.052935142 -0.08969 0.19490597 0.40423718 0.21959989 0.36149657
0.6215281 0.29504195 0.14130618 0.2200398 0.08180586 0.017287709 -0.1670443 0.024617763
0.08997116 -0.30271617 -0.00623598 0.04310029 -0.20839944 -0.033396933 -0.06821767 -0.20628724
-0.022106638 -0.22265333 -0.48475844 -0.05336058 -0.09075688 -0.15162997 0.028844424 0.07370371
0.17643656 0.13758904 0.17135721 0.34998393 0.27276403 0.05791359 0.18011424 0.15933137
00000000: 23d2 ebbb 1c50 0cbe f261 26bd 1a65 8fbe
00000010: 14ec 19bf bfb3 68be 875f 8fbe 53df ffbe
00000020: a6aa 1fbe db8f 84bd e485 98be 3ab3 e0bd
00000030: d87b a4bd edf1 e6be 30ad 33be dd4f c8bb
00000040: 6cc9 48be 69ee 8fbd 0950 47be e7d0 483d
00000050: f592 433e fe97 17be 7f4b 6d3e 042b 823e
00000060: a93a 5ebd ee8d b13d 0611 863d 029a 0b3e
00000070: 8024 7c3e 3480 c43d 54e2 173e 7b0f 053d
00000080: 9525 06be a4cc 55bd 6281 97be f125 8fbe
00000090: 7c81 0dbe b318 28be 13d4 6bbe 817f dcbc
000000a0: fc24 013d 5e9e adbe 453a a8bd af2a 05be
000000b0: 385e 89be 3fc4 83be 95c0 9bbe 1dae 4fbd
000000c0: 465d 79be c743 d9bd 3fae 8e3d 8d9a c53c
000000d0: 9d54 0d3e 6a06 b53d eff1 67be 00eb 1fbe
000000e0: 3515 cebd 9f3e c3be fea6 b1bd 9a77 6c3d
000000f0: d0d0 96be f99e 64be 2ea7 bdbd bee5 b1bd
00000100: 7ac3 51bc 82f2 c33d ef51 ee3d f76d ae3e
00000110: b596 9a3e 37c8 413e f793 b93e 92c5 503e
00000120: 8712 f83c 9caa 2d3e 34b6 313e 6c2e 09be
00000130: c551 833c aaa0 1e3e e74f 48be 97af 0bbe
00000140: 4a0a 943c b9b7 32bc 1fba 05bc add7 59be
00000150: dffe 66be 02e5 aebe 84c7 b1be 62a1 8dbd
00000160: e3e5 42bd 1dbb 9ebd e45b e53d 905c 1b3e
00000170: 7906 62bd be54 073e dab1 f43c a352 9dbe
00000180: 7e57 9ebd acef 9cbe b13b bfbe 28b4 623d
00000190: 49c1 933d 3e4f 6cbc 15a8 04be 33bf adbe
000001a0: b747 92be 8f37 fa3b 85d2 58bd 64af b7bd
000001b0: 6e95 473e 2df8 ce3e cbde 603e 1416 b93e
000001c0: 771c 1f3f bd0f 973e 91b2 103e 1d52 613e
000001d0: d589 a73d f49e 8d3c a90d 2bbe 31ab c93c
000001e0: cd42 b83d 9dfd 9abe 3157 ccbb ee89 303d
000001f0: aa66 55be 39cb 08bd b5b5 8bbd f63c 53be
00000200: fb18 b5bc 3cff 63be 4232 f8be a090 5abd
00000210: bede b9bd e344 1bbe 244b ec3c f9f1 963d
00000220: c9ab 343e 24e4 0c3e 4478 2f3e 1831 b33e
00000230: baa7 8b3e cd36 6d3d de6f 383e c327 233e

classifier.1.weight f4 [10, 64]
0.1398511 -0.16370393 -0.0014342106 0.08203475 0.19350347 0.09601821 0.16497763 -0.056124996
-0.22145931 -0.095233954 0.1428131 -0.05348959 0.10485199 0.17956167 -0.04808257 -0.048778806
-0.15817787 0.030393265 0.14282241 0.0033850854 0.07282325 -0.22017923 -0.35889867 -0.013336275
0.17861566 0.051503737 -0.0470326 0.15290527 0.08805323 -0.17612307 0.22611395 -0.16715828
0.12634307 0.08897839 -0.17718576 -0.2185918 -0.09266839 0.1107347 -0.29762232 0.34887242
-0.1524652 -0.11637546 0.08290812 -0.048210148 -0.015229085 -0.1895967 -0.18054628 -0.25669175
-0.0510606 -0.09605879 0.20957395 -0.10974623 0.2671683 -0.012938141 -0.034253567 0.083141714
-0.06074875 -0.12637508 0.024529021 -0.2434476 -0.03866105 -0.13260084 0.00853026 -0.25973552
-0.13980933 -0.015270841 -0.16279534 -0.15485097 0.11386296 -0.026702227 0.060826667 -0.06397678
0.123542905 0.07785842 -0.18347433 -0.26361176 -0.043043625 -0.24814619 -0.13932407 0.42911503
-0.02243331 0.0028626549 -0.41165754 -0.26428536 -0.29011104 0.2893417 0.09792886 0.071975105
0.30078518 0.068271086 -0.012692098 0.09551618 -0.14059596 0.0697539 -0.15594208 -0.19346702
-0.032037452 0.17732519 -0.038217064 0.24005331 0.34947714 -0.12952931 0.20412897 0.03284598
7.596466e-05 0.17022693 -0.08530848 -0.11936866 -0.13550109 0.18293156 -0.009764347 0.51285595
-0.25988993 0.07929119 -0.11641912 -0.02205432 -0.16918074 0.089329384 0.24681242 0.0753958
0.09582266 -0.013782301 0.32994628 -0.010198518 -0.34677663 -0.07164159 -0.17756777 0.0709001
0.21931775 0.16756633 0.0046102344 0.24209692 -0.017473623 0.047400787 0.2145763 -0.08485783
0.14130814 -0.18707348 -0.055320937 0.08446232 -0.08782243 -0.053571247 -0.022607964 -0.010361856
0.070254326 0.06752697 -0.052030142 -0.27376932 -0.02130216 -0.089525275 -0.1962039 -0.1975636
0.10005441 0.15003426 -0.13299806 0.15281992 -0.12099442 0.16408594 -0.1032658 0.08097871
0.3262649 -0.13055733 -0.14511204 -0.09254573 -0.07822594 0.09671718 -0.075965494 -0.08107214
0.040862136 -0.09776816 0.04125847 -0.08871339 0.14107992 0.16526581 -0.26708576 -0.037137445
0.10931864 0.017539239 -0.053545896 -0.032544293 0.054647986 0.0637189 0.15747364 -0.1113965
-0.14999735 -0.15746436 -0.034633193 -0.04124487 0.12833452 -0.1630104 -0.103373356 0.1416305
0.3583706 0.07412297 -0.043980617 -0.11774379 0.1162211 -0.015489297 0.017305851 -0.15878789
0.10591042 -0.089735515 -0.18118319 -0.020683916 0.23004939 -0.23524675 0.18449157 0.012750429
0.18280508 0.13458759 0.055461846 -0.09414975 -0.22816883 -0.16270761 0.015055098 0.14136809
0.02437505 0.25078833 -0.1757669 0.23866645 0.047906138 0.17408116 0.054339338 -0.07010026
0.1143873 -0.03912062 0.1972578 -0.074919455 -0.18169726 0.21356562 -0.36635897 -0.08152586
0.39311644 0.059074372 -0.19481753 -0.06901711 0.07774565 -0.107848056 -0.044640407 0.09155779
0.045599975 -0.19575526 0.02462056 0.23075624 -0.00756016 0.090621546 0.22831605 0.029988805
-0.19889824 -0.12168984 -0.009712628 0.08288086 0.01957327 0.033744607 -0.093432955 0.06550903
00000000: 2035 0f3e 01a2 27be 1ffc bbba d601 a83d
00000010: c625 463e 32a5 c43d e5ef 283e 53e3 65bd
00000020: 3bc6 62be 050a c3bd 993d 123e e617 5bbd
00000030: a4bc d63d 04df 373e 3bf2 44bd 49cc 47bd
00000040: 61f9 21be 4cfb f83c 0a40 123e 4fd8 5d3b
00000050: 5b24 953d aa76 61be 91c1 b7be 6480 5abc
00000060: 06e7 363e 95f5 523d 41a5 40bd 3393 1c3e
00000070: 4055 b43d 9b59 34be 6a8a 673e 8a2b 2bbe
00000080: 1460 013e 4d3a b63d 2f70 35be 87d6 5fbe
00000090: edc8 bdbd e0c8 e23d f461 98be 689f b23e
000000a0: d61f 1cbe 4256 eebd bbcb a93d 0178 45bd
000000b0: 6a83 79bc a325 42be 20e1 38be 1a6d 83be
000000c0: eb24 51bd 79ba c4bd 8e9a 563e a2c2 e0bd
000000d0: 49ca 883e 7ffa 53bc 784d 0cbd 3446 aa3d
000000e0: aed3 78bd 7868 01be 16f1 c83c 544a 79be
000000f0: 0d5b 1ebd 84c8 07be 81c2 0b3c 0efc 84be
00000100: 2d2a 0fbe 8d32 7abc d2b3 26be 4191 1ebe
00000110: fc30 e93d a1be dabc 6225 793d 4206 83bd
00000120: 1004 fd3d 3c74 9f3d b2e0 3bbe 1ff8 86be
00000130: 834e 30bd 091a 7ebe f8aa 0ebe f7b4 db3e
00000140: 10c6 b7bc 619b 3b3b c7c4 d2be 6950 87be
00000150: 6f89 94be 9824 943e ed8e c83d af67 933d
00000160: 8400 9a3e b6d1 8b3d 84f2 4fbc fd9d c33d
00000170: 63f8 0fbe 22db 8e3d 48af 1fbe 381c 46be
00000180: b439 03bd bc94 353e 7f89 1cbd 89d0 753e
00000190: abee b23e 55a3 04be 2f07 513e 8289 063d
000001a0: 374f 9f38 f84f 2e3e 36b6 aebd 8e77 f4bd
000001b0: ccc0 0abe 6952 3b3e a4fa 1fbc 874a 033f
000001c0: 4b10 85be 6b63 a23d 266d eebd 43ab b4bc
000001d0: b73d 2dbe 53f2 b63d 65bc 7c3e 1d69 9a3d
000001e0: ac3e c43d 29cf 61bc b8ee a83e af17 27bc
000001f0: b58c b1be d3b8 92bd 53d4 35be 1234 913d
00000200: d594 603e 8296 2b3e 7311 973b 41e8 773e
00000210: d824 8fbc 5427 423d e4b9 5b3e f1c9 adbd
00000220: 15b3 103e 3190 3fbe 3598 62bd 95fa ac3d
00000230: 3fdc b3bd 866d 5bbd 5634 b9bc c6c4 29bc
00000240: 80e1 8f3d 944b 8a3d 8f1d 55bd 7e2b 8cbe
00000250: de81 aebc 0759 b7bd ade9 48be 1d4e 4abe
00000260: 54e9 cc3d 95a2 193e a530 08be d37c 1c3e
00000270: eccb f7bd 2506 283e 057d d3bd 2ad8 a53d
00000280: 310c a73e d2b0 05be 4098 14be 9e88 bdbd
00000290: ec34 a0bd a813 c63d cc93 9bbd 2609 a6bd
000002a0: 0e5f 273d ac3a c8bd a4fe 283d 5eaf b5bd
000002b0: 4177 103e 713b 293e 77bf 88be 6f1d 18bd
000002c0: 73e2 df3d 73ae 8f3c f152 5bbd 2a4d 05bd
000002d0: 91d6 5f3d 0e7f 823d c540 213e d923 e4bd
000002e0: e898 19be 563e 21be 89db 0dbd 61f0 28bd
000002f0: 206a 033e 33ec 26be 69b5 d3bd 9607 113e
00000300: 5a7c b73e c9cd 973d 0525 34bd a823 f1bd
00000310: 5405 ee3d d2c6 7dbc 00c5 8d3c 4b99 22be
00000320: 90e7 d83d 41c7 b7bd 1688 39be 5171 a9bc
00000330: 1192 6b3e 86e4 70be 5ceb 3c3e 2de7 503c
00000340: 4131 3b3e 54d1 093e f62b 633d 96d1 c0bd
00000350: 17a5 69be d39c 26be a8a9 763c ccc2 103e
00000360: 2fae c73c 5467 803e 3dfc 33be fa64 743e
00000370: 3a39 443d 5542 323e ed92 5e3d ba90 8fbd
00000380: e443 ea3d f13c 20bd f3fd 493e 5f6f 99bd
00000390: d90e 3abe f2b0 5a3e 6793 bbbe 08f7 a6bd
000003a0: 8f46 c93e f8f7 713d 3f7e 47be d858 8dbd
000003b0: 1d39 9f3d 71df dcbd dcd8 36bd a782 bb3d
000003c0: 0ac7 3a3d 1174 48be 0fb1 c93c 5d4b 6c3e
000003d0: 38bb f7bb ca97 b93d afcb 693e 15ab f53c
000003e0: fbab 4bbe 8638 f9bd b721 1fbc 71bd a93d
000003f0: 1f58 a03c c937 0a3d c759 bfbd 9929 863d

classifier.1.bias f4 [10]
-0.18372266 -0.139227 0.20410424 0.13909377 -0.11521862 0.41662306 -0.1686885 0.06355821
0.13740541 -0.1481849
00000000: cb21 3cbe 8691 0ebe b400 513e 996e 0e3e
00000010: bdf7 ebbd 9e4f d53e aebc 2cbe cf2a 823d
00000020: 01b4 0c3e c8bd 17be
