Convolutional_Autoencoders/trained_models/CNN_Medium_Autoencoder.pth (torch, 78570 bytes, 17 tensors)

encoder.0.weight f4 [16, 1, 3, 3]
00000000: 3bd4 7ebd e3ff 0cbf 346b 9a3e 303f 0b3e
00000010: 4159 c2be c7e4 23be 9702 8b3e 794e dfbe
00000020: 3ccc b23d 11c9 92bc 56e2 8c3e f2b0 183e
00000030: a0a3 8c3e 4f43 963e 98de 843c fe7a 533d
00000040: 352a 95be 8336 f7be 6629 71be e18f 623e
00000050: 79a5 17be fc7d 9b3e 890e 983d 0c70 653d
00000060: e006 783e dedc a63e b794 3b3e 6c87 383d
00000070: 8e7d 133f b33b 433e a52f 21be 5c78 ee3e
00000080: aea1 473e baf5 50be 298e 2b3e 2555 f53d
00000090: eaad fb3e c636 e23c 604f 7cbd e3d0 953e
000000a0: 3a91 213f c5ee 6cbe 0273 f93d 6bf8 693e
000000b0: 2ce8 8a3d 9ef8 dabd c02c 293e b920 243e
000000c0: dd68 ac3e 07fb de3e 002a 1e3e 368a 7d3d
000000d0: 4e29 823e 19e0 1abe 5a0f 91be 5679 713e
000000e0: c6dc 51be 509b ca3d dcf8 9dbd ee5a 62be
000000f0: e0e7 79bd 4e4a 36be 4855 74bd 771f 203e
00000100: 110c ddbe 4afc 42bd c0a4 85be 119f 973e
00000110: 9de4 c83d b5b7 603d 286b 153d a929 6bbd
00000120: a8a6 5e3e 63ea 3d3d 0ac0 29be d663 c33e
00000130: b012 da3b 63b5 b43d dfd3 933d 8c8f 41be
00000140: ae57 43bb 5118 283e 01b6 56bd 8f3e 2e3e
00000150: 23e1 67bd 224a 313e 79d0 b83e b4ac d93d
00000160: 10c6 7c3d c5f6 2e3e 21db 08bf daa4 1c3d
00000170: 972a 4a3e 48de c7bd 9ae2 71bd 08e2 c33e
00000180: 4e44 b83e 41d5 ad3e a1ca a53e edfc 23bc
00000190: 3c30 153f 3df7 2e3f 4304 febe 50fd bdbe
000001a0: 59c3 2cbc cc83 6bbe c42e 18bf 95dc 34bf
000001b0: e81c debd 3844 60be a2a0 f9be 7f01 983e
000001c0: f704 adbe 1aca 26bf 0ca1 383f c9d6 eb3e
000001d0: 05c3 ccbd 9f49 00c0 66da 05bf 9a47 edbe
000001e0: 4acc dabe 0c18 51be 38c4 f83d e8d3 9dbe
000001f0: 9835 b23e 5aee 3c3f 935c f23e 5dd5 8f3e
00000200: 2e7f f2bb 2aa2 303e da59 0cbf 5964 12bf
00000210: 9263 04bd efde c6be 4eda 88bf 0b5d 013d
00000220: 086d e5bd 4070 d3be 6ab6 e0be 2526 593c
00000230: 7439 f3be 6f7c 5dbe 376e 6a3c 6e95 913d
-0.062214117 -0.5507795 0.30159914 0.13598323 -0.3795872 -0.1600524 0.27150413 -0.43614557
0.08730361 -0.017918142 0.2751643 0.1491125 0.27468586 0.29348227 0.016219422 0.051630966
-0.29133764 -0.48283777 -0.23550949 0.22125198 -0.14809217 0.30369556 0.07424647 0.05601506
0.24221373 0.32590383 0.18318449 0.045051023 0.57613456 0.19065742 -0.15740831 0.46576202
0.1949527 -0.20406237 0.16753449 0.11979131 0.49156123 0.027614009 -0.061599135 0.2926093
0.63112223 -0.23137958 0.12180139 0.2284867 0.067825645 -0.10691951 0.16520977 0.16028108
0.33673754 0.43550894 0.15445709 0.061899386 0.25422138 -0.15124549 -0.28332025 0.23581442
-0.20494375 0.09892905 -0.07713482 -0.22105 -0.06101215 -0.17801782 -0.059651643 0.15637003
-0.43173268 -0.047603883 -0.26102257 0.29613546 0.098092295 0.054862697 0.036479145 -0.057412777
0.21743262 0.046366107 -0.16577163 0.38162106 0.0066550598 0.08823659 0.072181456 -0.18902415
-0.00298069 0.16415526 -0.052419666 0.17016052 -0.05661119 0.17313436 0.36096552 0.10628644
0.061712325 0.17086323 -0.53459364 0.038243152 0.19742809 -0.09759194 -0.059053995 0.38258386
0.35989612 0.33951762 0.32381156 -0.010009033 0.58276725 0.68346006 -0.49612626 -0.37107325
-0.010544621 -0.22999495 -0.5944636 -0.7064908 -0.10845357 -0.21901023 -0.48755366 0.2968864
-0.3379285 -0.6515213 0.7212074 0.46062306 -0.099981345 -2.0044935 -0.52286375 -0.4634369
-0.42733985 -0.2041933 0.12146801 -0.30825734 0.34806514 0.73801196 0.47336254 0.2809247
-0.007400415 0.1724936 -0.548246 -0.5718437 -0.03232152 -0.3884196 -1.0691621 0.031582873
-0.11202437 -0.41296577 -0.4388917 0.013253723 -0.4750477 -0.21629499 0.014308504 0.071085796

encoder.0.bias f4 [16]
00000000: f99b c13e eea9 033e 9a7a 8c3b ba77 223d
00000010: 5606 9abb 8377 0fbd babb 96be 8dc2 a93e
00000020: 3807 60ba 1ea1 c13b fc81 a83b 4dd2 a23e
00000030: 5899 8b3e f2f8 563e acdf 453e bab8 e33e
0.3781431 0.12857792 0.004287076 0.03966496 -0.0047004623 -0.035026085 -0.294401 0.33156243
-0.00085459976 0.0059090992 0.0051424485 0.31801072 0.2726543 0.20993403 0.19323605 0.44476873

encoder.2.weight f4 [16, 16, 3, 3]
00000000: e775 043e e0ef 20bd b3b1 b2bd 8b88 aabd
00000010: 58b6 05be ab85 9abd 56df 83bd ba7b f33c
00000020: bdd3 2f3e a53b 95bd 096e e83e 5227 a33e
00000030: df97 ff3d 8393 0f3f f2cf 943e 0b81 1e3e
00000040: 3cf6 343d a749 28be 8adb af3d fe9d 8c3e
00000050: fa81 cb3d d491 ff3d 972d 7c3e 8743 b03d
00000060: a1a0 813e 0f01 19be 2cf4 88be d1ce 2a3d
00000070: f2c2 d03e 6b2a 2f3b ade9 c33d 9afe 093f
00000080: b5d6 28be ef2f 8c3c 7990 8f3e 38ce 85bd
00000090: 4152 2cbb f959 d83e 3931 733e 2f38 033e
000000a0: 1b88 023f 0e39 703e 14e2 503e 7eb1 e03d
000000b0: 2f57 77be 8503 cc3d 3247 dc3e 5744 243e
000000c0: 7a32 a43e 6ca5 0a3f a1d4 533e cbd3 743e
000000d0: a2f6 0abd 946d 18be 8037 03bc aa87 2d3d
000000e0: 5c12 e9bc 0300 5cbd 3bc7 20bd f679 593d
000000f0: 4dc0 a03d 2e31 8ebd 23b0 a63d 826f 653e
00000100: 5b01 843e 79ac 763e 50da 0c3e 922b 753e
00000110: cc4b a23d 4123 0f3e 7cfe d03c 7f67 fb3c
00000120: 0ab5 31be bf91 a83e c21d 5a3e 8a22 cf38
00000130: 9fcf 033f fbf7 d03e 871f 103e 07b9 203e
00000140: e3e3 5ebd 2a03 53bc ed59 923e 736f 2ebd
00000150: abb1 753e 69e4 8b3e 844f dbbd 8d6d 013d
00000160: 5b16 63be d54c ebbd 876c 8d3d 9be1 2e3e
00000170: ca84 923d 647c 0a3e d56c 193e b1e9 4abe
00000180: d5c6 5d3e 312c 5abe 73ad 2ebe 36eb fb3d
00000190: d967 84be f041 cbbc 1e5f cbbd 5d15 803c
000001a0: 16f1 903e 4edc eabd edd8 413e 0250 a83e
000001b0: c3ec 973d 7f3a 3abd 0d38 813d f8b4 44be
000001c0: 8c49 a7bd 0179 6f3d cbd5 b3bd 238b cf3d
000001d0: c0de 563e 9820 683e 2572 6e3e 85d4 223e
000001e0: 6aa2 143e 59a0 0d3e b18b b43d 6e92 0f3d
000001f0: 95a8 f3bd 56ea 04be bdb2 9dbd 8324 653e
00000200: 913c 703e b955 153e 8c73 cd3e 3b94 093e
00000210: 10c0 a93e 231e 943e 138c 16bd 1b7c 603d
00000220: e45b 5bbd 41e6 a83e cd9c 5b3e eefe c2bd
00000230: fd7a 2f3e 5df1 483e 37eb 32bd 85b8 303d
00000240: 8d94 bfbc eca6 533d 2613 5c3d 0040 b1bd
00000250: f893 5fbd 435a 7a3d 0f0d 54bd 6bc8 2c3d
00000260: 90a7 523d 9d4d aa3c 9d91 b4bd cf9b a8bc
00000270: cbbf 443d 1487 e33c 7881 9cbd 7818 93bd
00000280: 76ef b6bd 004c a9bd aafa 57bd 5eb7 11bd
00000290: 01d0 3ebd 4713 38bc 77bb 9cba 05f8 2cbd
000002a0: 9d12 7a3d 8c38 40bd 2d68 893d 202a 233c
000002b0: cffa 87bd 5293 3c3d 2cfe 89bd 0e2a a7bd
000002c0: b29f 5b3d 493e 153d 24e3 0dbd 455b 2fbd
000002d0: 9de0 bd3c 7744 8ebd eb32 903d 2be6 80bb
000002e0: e5e6 923c 11be 6cbd 6a5b 91bd 85ef b0bd
000002f0: 0e13 2d3c 66f8 8b3d f907 a93d 9e56 b5bc
00000300: 3d82 4c3d 9b12 49bd ef28 903d 448d a3bd
00000310: f355 30bd 0a0b 63bd cbd7 06bd ec53 be3c
00000320: f050 ac3c 142c 843c d5b8 903d ae80 50bd
00000330: 1068 813c 8fde a1bd 9e01 553d 8c1b 6a3d
00000340: 7a54 a43c 39cd 37bd c425 1c3d f832 aabd
00000350: bca6 2ebd c11f 8bbd 071f 41bd 4c2d c8bd
00000360: 4806 513d be3f 993c bddb 4cb9 b7fb a13c
00000370: b5f0 8e3c 6547 85bd 5053 4dbd 321c 6e3c
00000380: e704 2a3d 5ed8 0e3b 6d4e 5abd 98cb 953c
00000390: 4b18 f73c 0400 eb3c cb29 c0bb 43ad d6bc
000003a0: 5708 7c3c cd67 803d 82c4 67bb 4d79 81bd
000003b0: f9e0 dabc fc8f e0bc 5559 363d 02c6 9a3c
000003c0: 62b6 503d 7c83 a4bd 2422 80bd 3564 cbbc
000003d0: b045 b2ba 65a9 aabd e18d 36bd a57e 693d
000003e0: 33b6 4dbd 9535 c93c 9ee7 a1bd 07ae 4ebc
000003f0: e560 5f3d 81ce bbba cabd 5ebc 84b5 163c
0.12935601 -0.039291263 -0.087253 -0.08326825 -0.1305784 -0.075450264 -0.06439082 0.029722083
0.17170615 -0.07286767 0.4539645 0.31865937 0.12480139 0.5608446 0.290649 0.15478913
0.04418014 -0.16434346 0.08586796 0.27464288 0.099369004 0.124789864 0.24626766 0.0860663
0.25317863 -0.1494181 -0.26748788 0.04170114 0.4077373 0.0026728164 0.095660545 0.53904116
-0.16488154 0.0171127 0.2803991 -0.06533474 -0.0026294144 0.42256144 0.23749246 0.12814401
0.5098893 0.23459265 0.20398742 0.10971354 -0.24154352 0.09961609 0.43023068 0.16041695
0.3206976 0.54158664 0.2068658 0.23908918 -0.033926614 -0.1488555 -0.008008838 0.042365707
-0.028451137 -0.05371095 -0.0392525 0.053094827 0.078491785 -0.06942974 0.08139064 0.22405818
0.25782284 0.2408923 0.13755155 0.23942402 0.07924613 0.13978292 0.025511973 0.030689
-0.17354217 0.32923695 0.21300414 9.8769626e-05 0.5148868 0.40814194 0.14074527 0.15695582
-0.05441655 -0.012879172 0.28584233 -0.042586755 0.23993556 0.273227 -0.10708526 0.031598616
-0.22176497 -0.11489264 0.069054656 0.17078249 0.07154234 0.13524014 0.14982922 -0.19815709
0.2165788 -0.2130592 -0.17058353 0.12300722 -0.2586048 -0.024811715 -0.099302515 0.015635187
0.28308934 -0.11467801 0.18930407 0.3287354 0.074182056 -0.045465942 0.06309519 -0.19209659
-0.08168325 0.058465008 -0.08781012 0.1013396 0.2098341 0.22668684 0.2328573 0.15901382
0.14515081 0.13830699 0.088157065 0.035051756 -0.11897389 -0.12980017 -0.07700107 0.2237721
0.23460604 0.14583482 0.40127218 0.13435452 0.33154345 0.28929242 -0.03675468 0.054805856
-0.05355443 0.3298817 0.21446534 -0.0952128 0.1713676 0.19623323 -0.04368135 0.04314472
-0.023386264 0.05167286 0.0537292 -0.08654785 -0.054584473 0.061121237 -0.051770266 0.04218332
0.05142933 0.020788962 -0.08816836 -0.020582108 0.04803447 0.027774371 -0.07641882 -0.071824014
-0.08932392 -0.08266449 -0.052729286 -0.035575263 -0.046585087 -0.011235065 -0.0011957724 -0.042228717
0.061052907 -0.046928927 0.06709323 0.009958774 -0.06639635 0.046038933 -0.067379326 -0.08162318
0.053619094 0.036436353 -0.034640446 -0.04281165 0.023178393 -0.069466524 0.07040962 -0.003933688
0.017932365 -0.05779845 -0.07097514 -0.08639435 0.010563625 0.068344876 0.08253474 -0.022136029
0.049928892 -0.04909001 0.070390575 -0.07985929 -0.043050718 -0.05543045 -0.03292064 0.023233376
0.021034688 0.0161343 0.07066504 -0.05090397 0.015796691 -0.07903778 0.052003495 0.057155177
0.020059813 -0.04487345 0.038121954 -0.08310503 -0.04263948 -0.06793166 -0.04714873 -0.09774265
0.05103138 0.018707152 -0.00019536815 0.019773347 0.017448762 -0.06507758 -0.05012828 0.0145330895
0.04150858 0.0021796445 -0.05329745 0.018285558 0.030162951 0.02868653 -0.005864357 -0.026205665
0.015382848 0.062697984 -0.003536493 -0.063219644 -0.026718603 -0.027412407 0.044518787 0.018893246
0.050955184 -0.08032891 -0.06256512 -0.024828056 -0.0013601091 -0.08333091 -0.0445689 0.057005543
-0.050222587 0.024561683 -0.079055056 -0.012614734 0.054535765 -0.0014328511 -0.013595054 0.00919855

encoder.2.bias f4 [16]
00000000: 9706 3a3e d708 a8bd 7172 be3d f67a 603d
00000010: d83b 033d bc80 b93d c869 b03d c11c 3b3d
00000020: 6a22 ee3c a2c7 fc3d 73b0 1b3e b6e2 213d
00000030: 6c7b a43d d354 8e3d fa5e 02bd f5f4 3b3c
0.18166576 -0.08204811 0.09299172 0.054804765 0.032039493 0.09057757 0.08613926 0.04568172
0.029069144 0.123427644 0.15204029 0.03952285 0.08031353 0.06949773 -0.031828858 0.0114719765

encoder.4.weight f4 [16, 16, 3, 3]
00000000: ad29 ac3d eedb 3d3e 26eb c23d 101d 423d
00000010: 619d 1ebe 9e90 0c3e e448 b13e a1df c4bd
00000020: 728d 2dbc 5048 eabc 7dda c93b 7ef0 77bd
00000030: 1258 57bd 3021 80bd c4c2 5cbd 78c9 25bd
00000040: 0123 77bd 2ee0 20bd d933 b23d 478b 943c
00000050: 3494 70be 5a51 093d e5df e53e 391e 63bd
00000060: f473 28be afc9 0d3f 96ce bfbb b992 753e
00000070: b9bd 963d 5067 413e f76e d1be cac9 7abd
00000080: 69e2 793d e20f 30be b215 17bc e0dd a6bd
00000090: 22e8 203e b2d5 853d 9d3a 4f3e 8e4c 293c
000000a0: 9c0e 2bbe f1f1 543c fa4b e83d 741d 023e
000000b0: 308d 1d3e d586 c5bc 9d0c 6a3d 6c29 cf3d
000000c0: dfa1 b5bd c3c3 fcbd 71e8 00bd 9689 82bd
000000d0: 053d c2bd 2704 7ebd 0c29 3f3e acc2 823e
000000e0: 0f3b 2c3e ed52 31be b9c3 8cbd ff05 a13d
000000f0: 5005 9a3d b362 323d 58c5 9a3a 40a5 2cbd
00000100: 8adb 50be b873 94be 8f08 5f3d ccd5 dc3e
00000110: 44af 0fbe 2ad8 59be 20f0 fc3e 380f 8cbb
00000120: 20af 8c3e e2b1 e33d 672d c03d e0fa 963e
00000130: 0f96 343e 9faa 153e ba53 843c 1945 2b3d
00000140: 64b3 633d e099 b53d 63b6 cd3d 3486 d33c
00000150: 3e7d 513d 793d 8dbe 1026 863d 0842 933d
00000160: 96e9 83be 6e99 55bd aee2 83ba f5eb efbd
00000170: b4c9 873c 8fa2 1b3e cf97 8b3e ea3c 84be
00000180: a445 5bbe eade 753e 3f74 04bd 14c7 cd3b
00000190: f891 bc3d 84b3 133c 8f4f 773d 9489 1a3c
000001a0: 4dba 52bd 2548 643a d23c e83d 8e75 053d
000001b0: 6524 03bd 00d8 17be 2523 2abd 52ff b2bc
000001c0: c019 b73e 6b48 0bbe 8761 38bd 707c c23e
000001d0: d797 0c3e bf35 02bd 4e2a 9a3d c528 853d
000001e0: 140f 6b3e c907 89bd d41b 73bd 6848 193e
000001f0: 6dca 1e3d 0e12 133e ffd7 c83b b60e 693c
00000200: 4390 6b3d e462 7abd 3191 5dbd 3a4e 68bc
00000210: f6cd 8bbd 0554 903d f9f9 87ba 07f6 cbbd
00000220: a9bd 923c ef11 213e 066e 94bd eb1e cd3d
00000230: 5668 fbbc 51ec c4bd 1d9b 853e a433 cb3d
00000240: f866 2e3e ff6b b0bc ccb2 883d 73f6 71bc
00000250: b31c f0bd 53a0 343e e146 053d 611d 323f
00000260: f52e 9a3e edc3 82bd 122a 8cbd d299 3abd
00000270: 8a10 443d 4848 93bd cc94 ec3c 5f42 a3bc
00000280: 960c 35bd 7bfb 93bc fa04 84bc d65e 0bbe
00000290: faf6 1bbe 7053 a53e 7e77 39be 2355 a63d
000002a0: 375a 91be dbb4 21bd 0b0d 993d d0f7 9abc
000002b0: 5c58 3c3d 28c1 b7be 0966 0abe abad 68be
000002c0: b259 06be 90ee 8ebe d3b0 fabd c642 73bc
000002d0: 79b6 953d f5e4 c43e 4183 e1bc f3ec 773e
000002e0: cfb2 953b b2d3 7bbe 78d9 4e3d 4e46 173e
000002f0: fd3b 6e3c 0f4a 25bc ec65 be3d d992 53bd
00000300: af28 c53d b049 7d3e 5d31 51bc e0f8 ac3d
00000310: 9c5a 8abd 4c1d a9bc ac79 9d3e 448e 0c3e
00000320: e417 08be 124f 02bd 77d4 02bc c5a5 36bd
00000330: 702d 83be bbee 783e b87d 843d 1f33 9ebd
00000340: 81af 40be 5b1f 163b 0a6f e83e 68da 91bc
00000350: 48cd 9abd 9a24 1bbe 18bb 21be d84f c23d
00000360: b6e8 313e 8650 a53d e93d 0cbe 95af 713e
00000370: 5437 7cbc f9cd 033d 8f01 c7be e263 5f3e
00000380: 3c67 7ebd 28df e23d e09a 3c3e 1ee6 e33c
00000390: 4943 cdbd 31f2 0a3d f979 1e3e fafb c03e
000003a0: 8bb2 f63e 2c6c d33d e6db 9e3d e2a2 0e3e
000003b0: 4e58 6cbd 263d cc3e 383c 823e 0657 31be
000003c0: 6f22 18be 36be d5be 7c7f e8bc ae12 4b3d
000003d0: 6841 9cbc 6995 80bc d9a2 313d 892b 333e
000003e0: 7434 883d fce7 17bc 8ca1 c2bd 7cc9 433c
000003f0: d81a 2e3d dbda 85bc e666 33bd 4015 133e
0.084063865 0.18540928 0.09517507 0.047390997 -0.15489723 0.13727042 0.34625924 -0.09612966
-0.010592805 -0.028598934 0.006160079 -0.060532086 -0.052574225 -0.0625633 -0.05389668 -0.04047534
-0.060336117 -0.039276294 0.087012954 0.018132819 -0.23494035 0.03352485 0.4489738 -0.055448744
-0.16450483 0.5538587 -0.0058534844 0.23981752 0.073604055 0.18887067 -0.40904972 -0.061227597
0.061006937 -0.17193559 -0.009221481 -0.08147788 0.15713552 0.065349 0.20237203 0.0103331935
-0.16704792 0.012997136 0.113426164 0.12706548 0.1538589 -0.024112144 0.057140935 0.101153225
-0.08868765 -0.12342026 -0.031471673 -0.06373899 -0.09484295 -0.06201568 0.18668002 0.25539148
0.16819404 -0.1731679 -0.06873269 0.07862472 0.075205445 0.04355116 0.0011808081 -0.042149782
-0.20396248 -0.28994536 0.05445152 0.43131864 -0.14031702 -0.21273866 0.4940195 -0.004274275
0.2747736 0.11117913 0.0938366 0.29488277 0.17635368 0.14615868 0.016153205 0.041813944
0.055591002 0.0886724 0.10044553 0.025820829 0.05114483 -0.27585962 0.065502286 0.07190329
-0.2576415 -0.052148275 -0.0010062063 -0.11714927 0.016575672 0.1519873 0.27264258 -0.25827724
-0.21413285 0.24010816 -0.032337423 0.0062798355 0.09207529 0.009014968 0.060378607 0.009432215
-0.0514472 0.000870826 0.113397256 0.032582812 -0.03201713 -0.14828491 -0.041537423 -0.021850262
0.35761833 -0.13601844 -0.045014884 0.37985563 0.13729797 -0.031789538 0.075276 0.06501917
0.2295497 -0.06690938 -0.05935271 0.14969027 0.038767267 0.14362356 0.0061292644 0.014224699
0.057510626 -0.061129466 -0.054093543 -0.014178807 -0.06826393 0.070472755 -0.001037418 -0.09959035
0.017912703 0.15729497 -0.07247548 0.10015663 -0.0306894 -0.09615386 0.26094905 0.09921959
0.17031467 -0.021535872 0.06674728 -0.014768231 -0.11724224 0.17639284 0.0325383 0.6957608
0.3011395 -0.06385026 -0.06843962 -0.04555685 0.047867335 -0.07191521 0.028879546 -0.01992911
-0.044201456 -0.018064251 -0.016115654 -0.13610396 -0.15230933 0.3229022 -0.18111989 0.08121707
-0.2838914 -0.039479118 0.07473191 -0.018916994 0.045982704 -0.35889554 -0.13515486 -0.22722499
-0.13120154 -0.27916384 -0.12240758 -0.014847463 0.073101945 0.3845593 -0.027528407 0.24211483
0.004568435 -0.24592474 0.050500363 0.14772913 0.0145406695 -0.010088458 0.09296784 -0.051653717
0.096269004 0.24735141 -0.012768117 0.08445907 -0.067555636 -0.020643853 0.3075689 0.13726145
-0.13290364 -0.03181369 -0.007985226 -0.044591684 -0.25620604 0.24309818 0.064692914 -0.07724594
-0.1881695 0.0022906873 0.45397216 -0.01780434 -0.075586855 -0.15150681 -0.15794027 0.09487885
0.17373928 0.08071999 -0.13695492 0.23602135 -0.015394051 0.032178853 -0.38868377 0.21815446
-0.06211017 0.1107772 0.18418455 0.02781969 -0.10022599 0.033922378 0.15476216 0.37692243
0.48183092 0.103233665 0.07756786 0.13929322 -0.0577014 0.39890403 0.25436568 -0.17318353
-0.14856885 -0.41746682 -0.028381102 0.04957836 -0.019074157 -0.015696244 0.043368194 0.17497076
0.0665063 -0.009271618 -0.09503469 0.011949893 0.04250607 -0.01633971 -0.043799303 0.14363575

encoder.4.bias f4 [16]
00000000: bee7 cbbd de56 543e 5789 9cbd 4049 023d
00000010: a293 bb3d d643 4d3d 90a1 f3bd 63b8 babd
00000020: d125 e23d 09df 5fbd f522 953e d85c 613d
00000030: 0014 a8bd a7bc 0dbe 5039 5d3e c174 483d
-0.09956311 0.20736262 -0.07643383 0.031808138 0.09159018 0.05011352 -0.1189605 -0.091172
0.11042369 -0.054656062 0.29128233 0.055020183 -0.0820694 -0.13841496 0.21603894 0.04893947

encoder.6.weight f4 [16, 16, 4, 4]
00000000: 5ba6 1dbe 9fe6 b53d 1e04 2fbc 0a3f a8bd
00000010: 8f16 4fbd 9a34 ce3d d2de 44b9 e5fb cd3d
00000020: 2d9a dfbd 28cf 04be 92e3 02be 2207 6ebb
00000030: 06d0 723d bc1d 863e 9992 9cbd 9970 32bd
00000040: 6294 e73d 1cbc 96be bc45 db3b 4733 003d
00000050: 3036 713c b0af 86be b5c7 e83d 7bbf 32be
00000060: 8567 d83e fffa a5bc 680b 1e3d 4426 8f3d
00000070: 9752 4ebd 439f 9abd 4590 593e 26b2 20be
00000080: abde a73a 1e7b 8e3e 25f2 c43d 23e4 ebbc
00000090: e08c febd 5953 ddbe 7af5 133e e5e9 a63e
000000a0: 7961 f0bd 110e f2bc 5ecd 283e e243 83bd
000000b0: a014 51bc be4e 9d3d 7235 763e 93cb c7bd
000000c0: 0add bbbd 62f2 f43d 51f5 0b3e b903 8fbd
000000d0: 5c0c 78bc 658f cf3d 8488 d2be b062 bd3e
000000e0: 44d6 80bd d7ce 20be e0fa 5f3e 8b09 bcbc
000000f0: c8ed 0abd 6259 49bd 8691 31be 55c0 7fbd
00000100: ea00 ac3b 5a06 1fbe f884 903e a8c5 2b3d
00000110: a3b4 05be ad92 413e cf5c 01be 8a8f 7f3e
00000120: 31a1 34bc 79d9 a23d f00a 863d 8ef2 a8bb
00000130: 05d0 bbbc e18a 1ebd e799 d13d 4343 d0bd
00000140: 7cd2 86bc 361f 86bd 4bdf fc3e 6b61 e1bd
00000150: 2cee 47bd 9d4f 173e 9282 3d3c 9b19 a63e
00000160: 73b0 0dbe 7d11 e4bd 9852 373d 40f6 25bc
00000170: 77a2 3fbd 3795 3cbd 2fd3 a33e 41c9 a63d
00000180: 7294 5cbd ca1a 893e d1d1 2a3d 1026 3f3c
00000190: f986 85bd 4205 af3e 85a5 4abe d089 8abc
000001a0: a4e0 ddbc ff3c 0abe 209b 6b3e 2905 14bd
000001b0: 883f a1bd 104c 993d 7813 0d3e 7fa5 173d
000001c0: 89e8 9fbd 9a97 ac3d 6b0c b83e 05f8 b93d
000001d0: 34ea 813e 9a1b 0a3e cddf 683d 997e 543d
000001e0: bbd4 a4bd 1055 e8bd bd04 a43c ea37 bf3d
000001f0: d102 d03d d7fc 47be 3302 a43e 60fe 1b3d
00000200: 37b3 a63e 1d09 51be ec98 fe3d bc49 3d3d
00000210: 7edb 6a3e f62c 06bf 3428 e2bc 6d6f 6b3d
00000220: e56a de3c ba96 743d 2c91 453d c263 d0bc
00000230: e28f 1d3e 14d9 1a3d 8e15 c23d f449 723d
00000240: 784c 1d3d 8072 d53c e430 c5bc aca0 263d
00000250: 90b0 57bd 9795 96bd 2c98 27bd 4429 8fbc
00000260: e4a5 babc 9894 b63c a703 99bc 9294 123d
00000270: 3afd 07bd 3238 01bd 208c e53b 662a 293d
00000280: 7dd2 16be 808f 01be 7e19 7dbe 0e33 c1bd
00000290: a5e3 16be a7fa 3f3d 4f95 693b 55cf 8abc
000002a0: 60e9 d6bc e7fa 103d 7c97 0d3e 37ec 9e3d
000002b0: a76e 8dbd bc34 7e3e 7806 2ebe 5cae 043e
000002c0: 232d debd 73eb 7a3e 2d76 28be ef0b 973d
000002d0: aa01 1d3d 70dd 8e3e c8aa 2a3e 6e44 2a3e
000002e0: 9813 e83c 6ca1 8f3e 2919 ac3d b61e 0d3b
000002f0: 8bde 00be ed84 eabd fdfc dd3e 56d2 32be
00000300: baf4 9dbd c070 553c 3c07 7ebd db8f cbbd
00000310: 47bc 873d e451 47be 8b0e a3be 8a50 0e3e
00000320: 14c0 4bbe dba4 2c3d 9d02 4cbd 7f98 afbc
00000330: 0878 a93c 26da 503e f0cb f03d fb07 fcbd
00000340: b6a3 09be 5643 273e 682d 8d3d 2b4b 0fbd
00000350: 3408 52bd 145a b63d c74b 443e 8960 463e
00000360: faf7 4dbd 04cd 2ebd a38b 62be 6796 a63c
00000370: d4e6 813c a21a e33d 821a 633c fc76 10be
00000380: e00d 57be 4570 44bc bd2e cbbd ed60 063e
00000390: 862d 373e 6f54 2cbe 0f55 f23e d9c8 3cbe
000003a0: e017 d6bd 7167 ac3d e42e cf3d 14ef 0c3c
000003b0: 1d48 b2bd bbd8 03be 394c 6c3c 845e 5a3e
000003c0: 3bab ee3d 5564 9cbd 0333 aa3e b75d 063e
000003d0: a147 c2be 043e 223d 118e 93be 87e8 aa3e
000003e0: d80a 03be a96d 4e3c 2149 28be e022 923d
000003f0: 2b7a 57bd ee19 763c 8aef 953e 491d 3f3c
-0.15395491 0.08881878 -0.010682134 -0.08215149 -0.050558623 0.10068627 -0.00018775024 0.10057811
-0.109180786 -0.12969649 -0.12782124 -0.003632017 0.059280418 0.2619456 -0.07645149 -0.043564413
0.11307599 -0.2944039 0.0066916626 0.031298902 0.014722392 -0.26305914 0.11366216 -0.17455857
0.4226648 -0.020261286 0.038585097 0.069897205 -0.050371733 -0.07549908 0.2124644 -0.15692958
0.0012807449 0.27828306 0.09616498 -0.028795308 -0.124292135 -0.43227652 0.1444911 0.32600322
-0.117373414 -0.029547723 0.16484591 -0.06409432 -0.012761265 0.076810345 0.24043825 -0.097556256
-0.09173019 0.11960293 0.136678 -0.06983132 -0.015139665 0.10134772 -0.41119778 0.36989355
-0.06290868 -0.15703903 0.21873045 -0.02295377 -0.033918172 -0.049157508 -0.17340669 -0.06243928
0.0052491324 -0.15529767 0.28226447 0.041936547 -0.13057189 0.18903609 -0.1263306 0.249571
-0.011024759 0.07951636 0.06545055 -0.005155868 -0.02292634 -0.038706664 0.10234433 -0.10169079
-0.016457789 -0.06548922 0.4938911 -0.11004909 -0.048811123 0.14776464 0.011566775 0.3244141
-0.13836841 -0.11136148 0.044756502 -0.010129511 -0.046785798 -0.04604074 0.31997058 0.08143855
-0.053852506 0.2677825 0.041704003 0.01166679 -0.065198846 0.341837 -0.19789703 -0.016911417
-0.027084656 -0.1349983 0.23008394 -0.036137734 -0.07873446 0.07485211 0.13776958 0.037023064
-0.078080244 0.08427353 0.35946974 0.09080509 0.25373995 0.13487092 0.056854058 0.051878545
-0.080483876 -0.113443494 0.02002179 0.09336837 0.10156787 -0.19530044 0.32032928 0.038084388
0.32558605 -0.20413633 0.12431511 0.046212897 0.22935292 -0.52412355 -0.027607061 0.05747931
0.02715058 0.059714057 0.04823415 -0.025438193 0.15386918 0.037804678 0.094767675 0.05915256
0.038403004 0.026055574 -0.024071164 0.040680572 -0.052658617 -0.07352751 -0.040916607 -0.017475732
-0.022784181 0.022287652 -0.0186785 0.03578622 -0.03320048 -0.031547733 0.0070052296 0.0413002
-0.14728732 -0.12652397 -0.24716756 -0.09433566 -0.14735277 0.0468699 0.0035641973 -0.016944567
-0.026234329 0.03539553 0.13827318 0.07759898 -0.06905871 0.24824804 -0.16994655 0.12957138
-0.10848453 0.24503879 -0.1645133 0.07375323 0.038331665 0.27903318 0.1666671 0.16627666
0.028329656 0.28052843 0.084032364 0.0021533198 -0.12584893 -0.11451135 0.43357077 -0.1746305
-0.077126935 0.01302737 -0.062018618 -0.09939548 0.06627708 -0.19464833 -0.31847033 0.1389791
-0.1989749 0.042149406 -0.04980718 -0.02143502 0.020687118 0.20395717 0.11757648 -0.1230621
-0.13441357 0.1633428 0.06893426 -0.034983795 -0.051277354 0.089039 0.19169532 0.19372763
-0.050285317 -0.042675987 -0.2212358 0.02033539 0.015857138 0.11089064 0.0138613 -0.14107889
-0.21001387 -0.011989658 -0.09921024 0.13122912 0.1788846 -0.16829084 0.4733052 -0.18435992
-0.104537725 0.084181674 0.101163656 0.008601923 -0.08705161 -0.12875645 0.01442247 0.21325117
0.11653753 -0.07636324 0.33242044 0.13121687 -0.37945274 0.039609924 -0.28819326 0.3338053
-0.12797105 0.012599387 -0.16434146 0.07135558 -0.052606743 0.015020831 0.29284316 0.011664697

encoder.6.bias f4 [16]
00000000: 0240 51bd 49dc a5bd b661 3a3c 5758 62bc
00000010: f0ee dc3c 4057 323d c7a8 4abe ece4 913d
00000020: dd66 593d 7b8b 45bc 3d5b ba3d 1c91 9cbc
00000030: e4f9 59bc 1113 80bb f7ec 4dbd 94e4 4c3d
-0.051086433 -0.08098657 0.011375835 -0.013815007 0.026969403 0.04354024 -0.19790946 0.071237415
0.053076614 -0.0120571805 0.090994336 -0.019112162 -0.0133042075 -0.003908523 -0.050274815 0.050022677

decoder.0.weight f4 [16, 16, 4, 4]
00000000: bee2 99bd 8784 ab3e 22f3 a03e abcc 47bd
00000010: 6303 913d 68c4 263e eeae 8bbe f076 833d
00000020: 21fc adbc 6199 91be 8189 3dbe 838f 0a3d
00000030: 0efb 60be 02ef d6bd 76ca 1c3e 51c3 62bd
00000040: 7bdd ec3d dd7c 88be f9ad 903e da19 47bf
00000050: 6ad2 a3be 6761 2cbe 2e4e da3d 6be6 febd
00000060: 4826 4a3e dba7 093c c677 93bd 0e37 fd3c
00000070: 7765 6ebe e768 a83d b92d 743a 219d 893e
00000080: 12f0 4e3d 97d6 b4bc 70ad efbc 88d0 8abd
00000090: 8a5b 84bd 300f 50be 7cf6 8a3e 620f 0abe
000000a0: b476 0b3e 8a9f 403e 6dae 043e f53b d4bd
000000b0: 0adf 17be af9d febd 63b3 793c bb19 46be
000000c0: 74d3 423e 8bde a8be 5d68 c73b cb4d 6e3e
000000d0: 2fa6 70be 0079 6e3e 115a 7bbd 1b3f 353e
000000e0: 5872 3c3e 1dd0 f6bc df0d 9b3d 15ce ab3d
000000f0: 82db 57be f543 2abe c055 22be c33a 953c
00000100: 2ce8 cb3d f6f7 903e fe29 2b3e 3a42 1e3d
00000110: 40a3 8ebd c06d ec3d 1733 0ebe 83c7 2c3e
00000120: 9c4c ef3c a3c4 573d 928c 16bd e284 8cbd
00000130: 92e4 1abe cd49 493d d6e4 543d d8a0 8ebd
00000140: 438e df3d 7388 c73e 0167 423c ffb1 683e
00000150: 4155 26bc e1f4 8f3c 09b3 6abc fed1 583e
00000160: da98 5cbd fc50 afbd 16e0 69bd 591f 073e
00000170: e6e7 27bd d654 c83d b053 b8bd 1180 d8bd
00000180: 330e 893d 4ef4 f23d 740f 37be 12a1 1e3d
00000190: fd03 283e e74c 67be 66e9 7bbe 2fa5 04bc
000001a0: d327 013e c1c3 9bbd 4fa6 973d 266a 02be
000001b0: 0272 b23b 96d3 f53d f719 f6bd d85c 8a3e
000001c0: 256f ecbc 1326 53be 15be d03e faee 8c3e
000001d0: ab8d 07be 2929 873e 2de7 3f3d ac90 3dbd
000001e0: 88b3 b0be 41d7 29be 4987 0e3d 7012 dcbc
000001f0: 9fd8 3bbe e8ff 9a3e a1c9 92bd 64b7 7f3d
00000200: e3f6 70bc 7e77 efbc d820 233d ff7d 793c
00000210: ef6a 883e ee17 8b3d 2389 c93d 6591 033e
00000220: a073 3b3d d35a 0dbd ca64 c23a d7b7 26bd
00000230: a398 d3bc 8278 a3bc 5007 de3d 5972 a0bd
00000240: 58ad 51bd dd22 30bd 1ceb 8c3e 66f0 f7bd
00000250: 4568 563e a959 9f3e 5933 86bd dd93 f2bd
00000260: d065 2dbe a54d 84ba 8815 04bd 121a 8ebd
00000270: 01bd b9bb 6760 8e3e d866 6ebe 8700 1abd
00000280: 34d1 e93e 342b 8f3e 02fb abbd 0b97 a53d
00000290: 0654 9abd d181 40bd 826c 6d3e 21dc 163e
000002a0: e489 9cbd cdfc 75bc ab85 4e3d 039b 6abd
000002b0: ed1a bbbd a8e0 783b 8d89 b6bd c42e c0bd
000002c0: 3a26 a93c a7ff 183e 46b3 91be d6e4 a23e
000002d0: 655d 813c 46c5 d23c 5f76 273d 4ed2 7dbd
000002e0: 4504 6a3d bbd3 933d a7f4 493d 644d 243e
000002f0: ca6f adbd cf7f f2bb 2277 23bd 64d2 37be
00000300: a6b2 04be 73bd a53e f4f4 ed3c 9973 e93d
00000310: 89e4 c43d 5025 b23d 5249 09be baf1 993e
00000320: 2c3e 9fbd 3622 0ebc 8f3c 94bc f62f 103d
00000330: cc84 9dbd 0bf8 843d 93e1 043e 47f3 96bc
00000340: 95e7 703e dea1 a8bc 2c55 0f3e a8d3 b03e
00000350: fd39 143e f83f 503d d8e7 8cbc 2451 363d
00000360: 6cf3 623d 051a 86bb b4a0 04be d8e8 763d
00000370: e34b 093d be24 85bd 5426 8e3e 2b3b 4dbd
00000380: b151 5c3e c999 5fbe 02c6 2a3d 0b2a 133e
00000390: dbe4 c3be 6564 a13c f797 afbd 00de 1b3e
000003a0: 5ba6 cdbc 3279 b2bd fa81 74bd 7b4d b6bc
000003b0: be5d afba 7796 a0bd 4240 a53a 4575 abbe
000003c0: 0a9e 6d3e 2143 1abe 5624 ab3a c034 dcbc
000003d0: c057 2ebe 882a 16be bf80 21bd 6f29 503e
000003e0: df97 66be 4b11 8abc a6d7 ecbc 5b15 b63b
000003f0: 1b12 963e b143 a2bd 1a32 133d f966 fb3c
-0.07513951 0.33499548 0.31435496 -0.04877917 0.07080724 0.1628586 -0.27281898 0.0641917
-0.021238388 -0.2843733 -0.18509485 0.03382827 -0.2197077 -0.10494806 0.15311608 -0.05536205
0.115656815 -0.26657763 0.2825773 -0.7777382 -0.3199647 -0.16834031 0.10659443 -0.124462925
0.19741166 0.008401836 -0.07200579 0.030910041 -0.23280893 0.082231335 0.00093146745 0.26877692
0.050521918 -0.02207498 -0.029257506 -0.067780554 -0.06462772 -0.20318294 0.27141178 -0.1348243
0.136195 0.1881086 0.12957163 -0.103629984 -0.14831176 -0.124324195 0.015240523 -0.19345753
0.19025975 -0.32982287 0.006085439 0.23271863 -0.23500894 0.23288345 -0.06136519 0.17699854
0.18402994 -0.030128533 0.07571005 0.083889164 -0.2107983 -0.16627486 -0.15853024 0.018216496
0.09956393 0.2831418 0.16715237 0.038637377 -0.06964731 0.11544371 -0.13886677 0.16872983
0.029211335 0.05267776 -0.036755152 -0.06861283 -0.15126255 0.049142648 0.051976047 -0.06964272
0.10915806 0.3897129 0.011865378 0.2272415 -0.010152162 0.017572822 -0.014324912 0.21173856
-0.053856708 -0.085603684 -0.05709847 0.13195552 -0.04099264 0.09781806 -0.09000337 -0.10571302
0.066921614 0.11863004 -0.17876989 0.038727827 0.16407771 -0.2258793 -0.24600753 -0.008096023
0.12612848 -0.076056965 0.07404768 -0.12735805 0.0054457197 0.120032474 -0.12016671 0.2702396
-0.028861592 -0.20619993 0.4077002 0.27526075 -0.13237636 0.2639859 0.046851326 -0.046280548
-0.3451197 -0.16586019 0.034796987 -0.02686426 -0.18344353 0.30273366 -0.07167364 0.062430754
-0.0147073 -0.029231783 0.039826244 0.015227794 0.26644084 0.067916736 0.0984061 0.12848432
0.045764565 -0.034510445 0.0014831063 -0.040702667 -0.025829619 -0.019954924 0.108412385 -0.0783431
-0.051190704 -0.043002 0.27523124 -0.12106399 0.20938213 0.31123093 -0.065527625 -0.11844609
-0.1693337 -0.0010093941 -0.032247096 -0.06938566 -0.005668283 0.27807924 -0.2328142 -0.03759816
0.45667422 0.2796265 -0.08397485 0.0808545 -0.075355574 -0.046998803 0.23185924 0.1473241
-0.07643488 -0.015013886 0.050420444 -0.057276737 -0.09135995 0.0037975702 -0.089129545 -0.0938392
0.02064811 0.14941274 -0.28457087 0.31815213 0.015791604 0.025728833 0.04088437 -0.06196814
0.057132978 0.07218119 0.049305584 0.16045147 -0.08468588 -0.00740049 -0.039908536 -0.17951351
-0.12958774 0.323711 0.029047467 0.11399002 0.09613902 0.08698523 -0.13406876 0.30067235
-0.0777553 -0.008675149 -0.018095283 0.03520199 -0.076913446 0.06492623 0.12976675 -0.01842655
0.23525842 -0.020584997 0.13997334 0.3453648 0.14475246 0.050842255 -0.017200395 0.044510975
0.055407926 -0.0040924572 -0.12951928 0.06028065 0.033519637 -0.06501149 0.27763617 -0.050105255
0.21515538 -0.21836008 0.04169274 0.14371507 -0.3826054 0.019701192 -0.08573907 0.15221405
-0.025103739 -0.087145224 -0.059694268 -0.022253742 -0.0013379378 -0.07841199 0.0012607651 -0.33487907
0.23204818 -0.1506467 0.0013057094 -0.026880622 -0.17025661 -0.14664662 -0.039429422 0.20328306
-0.22518872 -0.016853949 -0.028911423 0.005556745 0.29310688 -0.07923067 0.035936452 0.03068875

decoder.0.bias f4 [16]
00000000: 12ea dc3d 3822 99bc 8b51 17bf 4d5c 11bf
00000010: 0f1c 9f3f b83c 233f adc1 213f b0cc 163f
00000020: b21d 4a3d e6aa 343f 096b 89be a3b5 943e
00000030: f06c 3bbe bfe9 853d 276f ec3e 3aff 853f
0.10786833 -0.018693075 -0.591088 -0.56781465 1.2430438 0.63764524 0.6318615 0.5890608
0.049344726 0.7057327 -0.26839474 0.29044828 -0.18303275 0.06538724 0.46178553 1.0468514

decoder.2.weight f4 [16, 16, 3, 3]
00000000: c5f3 443e eea2 ef3d 75e0 e0bc e519 373e
00000010: 7411 253c d3a6 09be 54ef c4bd 5995 373e
00000020: 3139 b5bd 3752 543e bfdc 543e a8a4 ee3c
00000030: d06b 1dbd 73ea 71bd 8598 e03c 15c6 4e3b
00000040: 3826 3fbe a934 5e3d d8ec 1fbe 7be5 473e
00000050: 94ef 34be 4cd1 853d 4490 643d c0ea fbbc
00000060: b032 093e 3e1c 27bc b40e 8abd 61d2 62bd
00000070: 59a7 083e ac81 6ebd 9ca2 88bd cba5 db3d
00000080: 2c86 4b3e 4e90 fb3c 1b48 ed3d 2420 b7bd
00000090: cd4b 023e 9a85 13be 85ee 50be 0367 8bbe
000000a0: 86dd 243e 6f3e b4bd dfbb a23e 0059 473e
000000b0: 8fe2 e5bd 2dda 8fbd ba3e 1e3e 48ad d53d
000000c0: 5d44 3abc 6d20 9c3d 1f10 333d ed07 babc
000000d0: c17c 823d 0b19 143e f8a9 493e 398a 363e
000000e0: e62b 26bc f605 06be b76f e1be e3df 98be
000000f0: 47dc 263e 8259 80bd b1cb 1a3c 7bbd 81bd
00000100: ea91 42be 023a 16be 3f1c d73d e267 22be
00000110: 0346 08bb 166d b43d 06fb 8abe 73e4 02be
00000120: 1a73 ac3d 394b 293b dd9f 80bd 77ba 893e
00000130: f0c0 a7bc bae4 bfbb 2add f5bc 8d11 663e
00000140: bb55 91be 0aa5 783e 61c8 a5bc 49a1 833d
00000150: 3e13 36bd 8164 03bd 86c6 653e 3886 383c
00000160: 6021 ba3a 38a1 d73d a038 11bd dc85 03be
00000170: 9188 88bd b7c7 823e 7d90 b43d d02c 153e
00000180: 8751 273e 0674 293e 6c5f d4ba d04e 3dbe
00000190: ee15 73bd 3cba 71bd 1629 d6bd 3801 a53e
000001a0: 03fc 99bb 962f 0c3e af9f 583e f8f9 b03d
000001b0: f4af 8e3c 04e8 f1be 7c76 74bd 60d9 b33e
000001c0: 2f86 293d c858 dbbc ef90 0e3e 447b 543e
000001d0: cca2 84bd 41f3 d0bd 92c1 8bbc cf91 d13c
000001e0: 906e 273e ced6 79bd 001a 073d 3243 90be
000001f0: 0386 12bc 125e c63d 4f32 213d fee1 b7bd
00000200: 3e3e d2bd c3ae 69bd 7609 d23c 65d1 d9bd
00000210: 79f5 e33d 41d6 0d3e 642f 203b c672 3d3c
00000220: 51a0 3cbe 2106 123d 4a04 09bc 7635 e93e
00000230: 9fcb abbe af44 1d3d 4ff4 b3bd ca16 06be
00000240: 8e5c e5bd a9d2 3fbe 963c 053d bdc3 c83d
00000250: 45ca 9fbb 2426 1c3e 6158 8c3d d8d3 22bc
00000260: 0efc 9ebc c34d 12bd 7bd2 91bd b8a5 633e
00000270: 1dc5 cbbc 205f dbba d187 1b3d 7498 0dbb
00000280: 5069 aabd b458 033d 2e73 5abe f4de 1cbe
00000290: f2cc 4abd 7f80 0f3d a651 91bc 6608 6fbc
000002a0: bb84 783c 69ba 503d 8103 22be d935 b6bd
000002b0: 3232 983e be72 3e3c ad09 ac3d 82c5 643d
000002c0: a23c d8be 0846 0abe dc9c 8a3d e8c1 bebd
000002d0: 95eb d2bd f5b5 5fbd 6e6b 6a3d 992b 3dbd
000002e0: 855d 62bc f3aa 383e 9ebf e93c 624d b1bd
000002f0: 7026 84be 6108 823d d898 a6bd a036 b8be
00000300: 94c7 50bb a4f2 f5bd e70a 753d 317c 173e
00000310: 3fdc b93d 8ec8 cbbd 8b6a 75be c8b4 f33d
00000320: e1a4 483e b080 5cba b58f 26bd c114 63bd
00000330: f63c e4bd 994d 1cbd 2788 eabc 3399 94bc
00000340: 306c e6bd 675c 03be 95e8 f1bd 9315 9f3d
00000350: 1e36 b1bd 6e3a 4d3d 0f60 82be 56cc 9abc
00000360: 9ef0 63be 2dd2 eebd f5f4 99be 0b6f b1bd
00000370: bc3d 75be c697 873e 91b9 c2bc 4ab9 6fbd
00000380: 1c58 0e3e 932a 623e bccf 83bd afed ad3d
00000390: 710a 1e3e a8b9 883e 8aa7 e43c 631a 823d
000003a0: efeb 393e 7832 253d 9eb3 f3bd 2454 82be
000003b0: 8436 9dbc a948 623d 6133 7dbc ab92 6e3e
000003c0: be8c c3bc c2a1 9e3d dd68 0a3e d6f8 d03d
000003d0: ce3e cebd 4244 963c ee91 5dbd 86fd c73c
000003e0: 462c 8e3d 9cc9 70bd 0465 d1bd f7da dcbd
000003f0: bcd5 3dbe ea03 0f3d 6bb7 db3d ba56 5f3d
0.19233616 0.11700998 -0.02745078 0.17880972 0.010074962 -0.13442545 -0.09615961 0.17928065
-0.08848799 0.20734487 0.20787333 0.029131249 -0.038432896 -0.05906148 0.027416477 0.0031551172
-0.18666923 0.05424944 -0.15617692 0.19521134 -0.17669517 0.06534061 0.055801645 -0.030751586
0.13398242 -0.010199605 -0.06741086 -0.055376414 0.13345088 -0.058229133 -0.0667164 0.10724982
0.19875401 0.030708458 0.11586019 -0.08941677 0.12724228 -0.14406434 -0.20403488 -0.2722703
0.1610013 -0.08800971 0.3178396 0.19467545 -0.11224853 -0.070240356 0.15453616 0.104334414
-0.011368838 0.07623372 0.043716546 -0.022708857 0.06371451 0.14462678 0.19693744 0.17826165
-0.010142302 -0.13088211 -0.44030544 -0.29858312 0.16294967 -0.06267072 0.009447978 -0.06334969
-0.19000974 -0.14670566 0.105034344 -0.1585994 -0.0020793683 0.08809869 -0.2714464 -0.12782459
0.084203914 0.002583219 -0.062804915 0.26900074 -0.020477742 -0.0058561238 -0.030012686 0.22467633
-0.2838572 0.24281707 -0.02023715 0.06427247 -0.044451945 -0.03207827 0.22439012 0.011262469
0.001420062 0.10528797 -0.035454392 -0.12844032 -0.06666673 0.25542995 0.088166215 0.14567876
0.16339694 0.16548166 -0.0016202754 -0.18487096 -0.059347086 -0.059015498 -0.10457055 0.32227492
-0.0046992316 0.13690028 0.21154664 0.08641428 0.017417885 -0.47247326 -0.059683308 0.3512678
0.041387733 -0.026775733 0.13922475 0.20750147 -0.064763635 -0.10202647 -0.017060075 0.025582222
0.1635077 -0.06099587 0.03298378 -0.28176266 -0.008943084 0.09685911 0.03935462 -0.089786515
-0.10265778 -0.05705143 0.025639277 -0.10635642 0.111308046 0.13851263 0.002444231 0.011563009
-0.18420531 0.035650376 -0.008362839 0.455486 -0.33553788 0.03839558 -0.087868325 -0.13094631
-0.11199294 -0.18732704 0.032528482 0.09802959 -0.0048764073 0.15248924 0.068527944 -0.009938203
-0.019407298 -0.03571869 -0.07120224 0.22231185 -0.024874264 -0.0016736723 0.03797132 -0.0021605762
-0.08320868 0.032067016 -0.21333 -0.15319425 -0.049511857 0.035034653 -0.017739128 -0.014589405
0.015168364 0.050959025 -0.15821649 -0.088969894 0.29725796 0.011624036 0.08400283 0.05585242
-0.4223376 -0.13503277 0.067682 -0.093143284 -0.1029884 -0.054616887 0.05723136 -0.046184156
-0.013816242 0.18033962 0.028533753 -0.08657338 -0.25810575 0.063492544 -0.081346214 -0.35979176
-0.003185724 -0.12009171 0.05982485 0.14793469 0.09075212 -0.09950362 -0.23966424 0.11899716
0.19594146 -0.000841151 -0.040664393 -0.055439714 -0.1114444 -0.03815994 -0.028629376 -0.018139457
-0.11251104 -0.12828217 -0.118119396 0.07767787 -0.086529 0.05010455 -0.25463912 -0.018896263
-0.22259757 -0.116611816 -0.300697 -0.08663758 -0.23949331 0.2648298 -0.023770126 -0.058526315
0.13900799 0.22086553 -0.064361066 0.084926 0.1543367 0.26704144 0.02791192 0.06352689
0.18156408 0.040331334 -0.11899494 -0.2545482 -0.019191034 0.055245075 -0.015454144 0.23298137
-0.023870822 0.077456966 0.13516565 0.10203712 -0.10070573 0.018343095 -0.054094248 0.024412882
0.06942038 -0.05878602 -0.10224345 -0.10783952 -0.18538564 0.034915842 0.107283436 0.05452607

decoder.2.bias f4 [16]
00000000: 6cbd 3d3e ebff 0fbf df56 f03e 9459 86bd
00000010: 54f9 0b3f cd7e 813e 066c f53d de91 c03e
00000020: 8b1d 993b a5b3 0bbf ee51 e23c b0b1 b83e
00000030: e831 813f 637f f93e 0128 abbd 1e97 12bf
0.1852929 -0.56249875 0.46941277 -0.065600544 0.5467732 0.25292054 0.119834945 0.37611288
0.0046727112 -0.5457099 0.027626958 0.36073065 1.0093355 0.4873 -0.083572395 -0.57261837

decoder.4.weight f4 [16, 16, 3, 3]
00000000: cdab 0c3d 0df2 073d 44b9 13be 9ed2 43bd
00000010: 1b3f 353b 3661 13bd de35 28bb d7a8 533e
00000020: 9186 243e febc 8c3d 5ec3 83be afd5 fe3d
00000030: 13f0 6fbe 7531 2e3e 3a95 b0be 98f5 3a3e
00000040: 5dc6 7b3e ccea 82be 2897 f0bd eec6 10be
00000050: 05ec c3be ccb7 55bd bc62 18be 4660 083e
00000060: 70a0 823e c13c 8abe 0a9f 6b3e aa30 69bd
00000070: 7ceb 363e c6cc dd3d 9c9e b43e 2360 793e
00000080: d6db 6c3e 8b08 a7bd 3b13 7d3e 18b6 de3c
00000090: 60fa 463c c580 3dbe 61ba 1ebc 6962 62be
000000a0: ba44 e03d 2875 8e3e 0867 b33d f98c 933e
000000b0: 83db 4e3e f3ae 023c 36b3 033a 78b3 03be
000000c0: a09e 25be 7624 31bf d2fa 1abe 7b72 923c
000000d0: 214e 543e 02c1 e73d 21e1 93bd d843 5bbd
000000e0: ba9a f53c 828e 02be e318 c1be 0599 42be
000000f0: b630 a9bd cc61 3ebc 935c a73c 3f05 c8bd
00000100: 4121 ed3d 5b5d 233d 2769 e3bd bfdb bb3d
00000110: 84e5 26be 3a96 80bd 5dbd 4f3e 36c2 07bd
00000120: c294 e23b 480d 25be 498f 20be f71d 73bb
00000130: 12f2 d6bb 13db 88bd b82a 51be e07d 883e
00000140: 5dee d93c 0358 543d c32f 0abe 12d1 7f3d
00000150: 97b3 7b3d 87a4 803e 6df0 92be a3b8 503e
00000160: 848d ca3c 66ab 133e b0ff 6fbb 25bc 02be
00000170: ffbb 383d aa23 b9bc 064e 5c3e 254e 1f3e
00000180: 0efd 063e 8bd8 23be 8f42 bf3d cad9 ea3d
00000190: 6821 2fbd 81b8 323d 5bfb bcbd a237 b2be
000001a0: b63f ecbd 3cad 3d3e ec04 aebe 11bd 43be
000001b0: 928c 443c 864f 6fbe e605 f13d 01ee d4bc
000001c0: 9f8d e3bd 784f 023e 6388 1d3e bed5 303e
000001d0: 2ccc 41bd 273b 48bc 5d83 7abb 43d2 48be
000001e0: 1c98 7cbe 19b1 e7be d657 89bb 9541 e73d
000001f0: 86c8 173e f863 9abd 738e 653e ae6b e7bd
00000200: 73c3 c6bd 9b99 033e fa72 023e 80a8 38be
00000210: 8e6b 37be 51ee 5ebe bda0 d93c 5afd 8fbc
00000220: a188 bf3c 6fab 993d ffe9 193e 2d1c 0ebe
00000230: 7287 423e 961b fa3d d1ca 553e bd5d fbbd
00000240: 1d48 2b3d a7b3 dc3c e4f6 553e 99a6 143c
00000250: a01c 6c3c d08d 0ebe da97 d6bd 1f23 e13d
00000260: 9294 a63d fc3c afbd 5ae8 293e f296 0f3e
00000270: 66c6 9abe ed14 89bd b09b 11be 10ac 3e3c
00000280: 6a86 0cbf 91dc 33bd 0473 b4bd 7753 04bd
00000290: 3252 6cbd c41b 5fbc 577a 2f3b 4a7c 0cbe
000002a0: f311 36be 7c87 5b3e 5115 aebd 04c1 333d
000002b0: 8505 43be 2505 fbbd b0bc e9bd 9f5a 023e
000002c0: c6db d4bd c9d7 8ebb 3d3e 8c3e 80cc c83d
000002d0: e102 7abc b25b acbd fba4 16be c7a9 22bd
000002e0: 2c5d 0bbe 8e3c 35be 07fd 433e 2d58 a03d
000002f0: 7504 393e 63b0 cb3d 2d5b 0fbd 8378 de3d
00000300: d888 913c bf50 52be 0fea 23be faac 8e3c
00000310: 890d 0bbe ea5f 6fbc d02f 06bb 5c5a e63d
00000320: 9a08 f1bd c5f2 afbd 4b6e ad3d 9a85 6b3e
00000330: dac1 25bd 1dd6 c8bd 39e6 27bc 0c28 013d
00000340: a2b1 0fbd 55d1 edbc a183 41be 9284 da3c
00000350: c2c3 ef3d cc00 d6bc 974d ffbd 76e1 2f3d
00000360: 8964 313d 1b9a 50bc eaec c73b eb56 2f3d
00000370: d980 423c 34f0 4cbd 4c8f a8bd c2fe 9ebd
00000380: a30f 64bd 99de 843b a7a9 b73c 8255 c2bd
00000390: b172 f5bc f7d8 06be 2021 d2bd 6d17 52bc
000003a0: 0be6 adbc 1d43 a43c acb0 fcbd 3fe8 6139
000003b0: 69be 583c 4435 f6bd 0915 01be 5c5c 41be
000003c0: 6cd5 cf3d 2162 013d d927 f3bd 9f6c 0dbc
000003d0: 0f1e 923d e38b 063e 3ce1 383e a0fc 713e
000003e0: 3a29 08bd 029a 9f3c 6a22 0b3e a8a4 abbd
000003f0: 6697 ccbb 7a75 273d 38a0 5a3d c328 e13d
0.03434353 0.033189822 -0.14426142 -0.047808282 0.0027656022 -0.03598138 -0.0025666873 0.20669876
0.16066958 0.06871985 -0.2573499 0.12443101 -0.23431425 0.17011054 -0.3448885 0.18257749
0.24587388 -0.2556976 -0.11747581 -0.14138386 -0.38266006 -0.052177235 -0.14881414 0.13317975
0.2551303 -0.26999477 0.23009887 -0.056931175 0.17863268 0.10830073 0.3527726 0.2435308
0.23130736 -0.08155926 0.24714367 0.027186438 0.012144655 -0.18506153 -0.009687991 -0.22107853
0.109506086 0.27823758 0.08759886 0.2881849 0.20200925 0.007976281 0.0005023958 -0.1286143
-0.16173792 -0.6919626 -0.15134743 0.017876854 0.20732929 0.1131611 -0.07220674 -0.053531498
0.029981006 -0.12749675 -0.377143 -0.19003685 -0.08261244 -0.011619996 0.020429885 -0.097666256
0.11578608 0.039883953 -0.111040406 0.091727726 -0.16298491 -0.062786534 0.2028708 -0.0331442
0.006914706 -0.16118348 -0.15679659 -0.0037096718 -0.0065596187 -0.0668241 -0.20426452 0.26658535
0.026602918 0.051841747 -0.13494782 0.062455244 0.061450567 0.25125524 -0.28699055 0.20382933
0.024725683 0.14420852 -0.0036620907 -0.12767084 0.045101162 -0.022600014 0.21514139 0.15557154
0.1318247 -0.16000573 0.09338867 0.11467321 -0.042756468 0.043632988 -0.0922763 -0.3480807
-0.115355894 0.18523115 -0.3398813 -0.19115092 0.011996405 -0.2337018 0.11768703 -0.025992395
-0.111109965 0.12725627 0.15384059 0.17269036 -0.047313854 -0.012221134 -0.0038225271 -0.19611458
-0.246674 -0.45252302 -0.004191379 0.11291806 0.14822587 -0.07538599 0.22417621 -0.11299835
-0.09705248 0.12851565 0.12739173 -0.18033028 -0.17912123 -0.21770598 0.026565904 -0.017576862
0.02338058 0.075034015 0.15030669 -0.13877936 0.18996981 0.12212293 0.2087815 -0.122737385
0.04181682 0.026941134 0.20894963 0.009072923 0.014411122 -0.13921285 -0.10478182 0.10993027
0.08133806 -0.08556554 0.16592541 0.14022425 -0.3022949 -0.066934444 -0.14219546 0.011637703
-0.548926 -0.04391152 -0.08811 -0.03230616 -0.057695575 -0.01361746 0.00267758 -0.13719288
-0.17780285 0.21438402 -0.085001595 0.043885246 -0.19045074 -0.122568406 -0.114129424 0.12729882
-0.10393481 -0.0043592197 0.27391234 0.0980463 -0.015259475 -0.08415927 -0.14711373 -0.039712694
-0.13609761 -0.17698881 0.19139491 0.07829318 0.18068106 0.099457525 -0.03499906 0.108628295
0.017765447 -0.20538615 -0.16007255 0.017416466 -0.13579382 -0.01461027 -0.0020475276 0.112477034
-0.11769219 -0.085912265 0.08468302 0.23000184 -0.040468074 -0.09806464 -0.01024776 0.031532332
-0.035081513 -0.029030481 -0.18897869 0.026674543 0.1170726 -0.026123427 -0.12465971 0.042939626
0.04330877 -0.012732054 0.0061012404 0.0428075 0.01187154 -0.050033763 -0.08230457 -0.07763435
-0.055678975 0.004054856 0.022419764 -0.094889656 -0.029961916 -0.13168703 -0.10260224 -0.012822968
-0.021227857 0.020051533 -0.12338385 0.0002154419 0.013228991 -0.12021878 -0.1260568 -0.18882889
0.10148129 0.031587724 -0.11872835 -0.008631854 0.071346395 0.131393 0.1805467 0.23631525
-0.03324244 0.019482616 0.13587347 -0.08381015 -0.006243634 0.04088352 0.053375453 0.10994103

decoder.4.bias f4 [16]
00000000: 19f4 90be 4387 033f 1cdf 7b3e ee0f 323e
00000010: c08b 003f 3973 673f 628d 43be 4004 28be
00000020: 24af 493e ee28 e13e b61e 873e 2b88 0cbf
00000030: 84c4 babe e4c8 ff3e 422b eebd 159f 233f
-0.28311232 0.5137827 0.24596828 0.17388889 0.5021324 0.9041019 -0.19096902 -0.16407871
0.19695717 0.4397654 0.26390618 -0.54895276 -0.36478055 0.49957955 -0.116293445 0.63914615

decoder.6.weight f4 [16, 1, 3, 3]
00000000: 0e59 b43e c3d8 a63e aa7d f23c 8ff2 0c3f
00000010: 65b0 c43e 4f84 b7bc 5a0b 983e 9ede d53d
00000020: dfec e5bd 586d 95bd b422 a9be f7a1 a8be
00000030: f263 79be 19ee 39bf 4ff4 18bf 9f80 1fbe
00000040: 666f d5be a440 a9be be48 41be c33b b3be
00000050: ec23 07be 77ae d4be c913 30bf e95c 85be
00000060: ce99 87be 6f89 e5be 8a98 68be 0bdf 06be
00000070: 0f0f 75be f7f1 42be d7cb b4be d821 18bf
00000080: 58c3 d5be c8f9 8dbe 085d d6be 8a5e 98be
00000090: f68d 54bd c4ce 27be 1b79 7abe 795f a7be
000000a0: 93b4 17bf 0cec 18bf a3ec 93be 084b 04bf
000000b0: 63f2 d5be 551e eabe 99db 12bf 5344 23be
000000c0: 6f8a 2cbf 4e9c 07bf 5f25 803a f736 96be
000000d0: d17a e9bd 58cf e53d e980 07be e06b debd
000000e0: 0e2a 84bd f615 c63c c25d ad3e 784b 673e
000000f0: 09a6 293e b914 ca3e 2d96 7c3e 9284 bd3e
00000100: 72e2 d83e a1db 863e 0537 ac3e 81a1 3a3e
00000110: 8705 da3d cc6a 613e 771b 493e 603c 073e
00000120: fe11 89be c0ed fdbe 5ee3 3fbe 9587 d9be
00000130: 34b0 36bf 9c8c 5abe 9a1b 18be f441 22be
00000140: 028d d83c a0e7 f8bd 5012 cbbe 5065 71be
00000150: 97c5 80be b904 2dbf eec6 b9be e416 dcbd
00000160: ea70 75be 4848 d2bd d857 d8be 44a8 b6be
00000170: 9f6a 77bd 4006 36bf fdd2 07bf de0f 85bd
00000180: f9ca efbe 4e55 a5be c246 dd3a c6a1 103e
00000190: 47da e43e 3659 0f3e 4386 9c3e c473 463f
000001a0: dcca 7e3e f71a 253e 33d6 c73e def2 ba3d
000001b0: 8d3e 863e 2d33 9e3e ba54 ac3e 0a83 c53e
000001c0: ac56 ba3e 3394 e83e 0e2e 2f3e 592b a83d
000001d0: cba9 373e 55b7 dbbd d4a1 e9be 860f c2be
000001e0: 6ab7 0cbe 25fc 09bf 86fe f1be 8cda 523d
000001f0: 7b1e aabd 0d85 94bd 738d 713e 73d5 883e
00000200: b6ad 103d 1d5c ca3e 62a7 8c3e 5fd0 4d3c
00000210: b7d0 64bd 8fb7 b9be 48d8 b1be 55b4 8abd
00000220: 4a64 5fbe 64ee 83be a479 d2be d784 4dbf
00000230: 45e5 29bf a61d bcbe 11f1 22bf 0f45 dfbe
0.35224193 0.3258725 0.029600937 0.55057615 0.38415828 -0.022401957 0.2969616 0.104428515
-0.1122682 -0.07296246 -0.3303429 -0.3293607 -0.24354532 -0.72628933 -0.59747785 -0.15576409
-0.41686553 -0.3305713 -0.18875405 -0.35006532 -0.13197297 -0.41539356 -0.6878019 -0.26047447
-0.2648453 -0.44831416 -0.22714439 -0.13171022 -0.23931526 -0.19037615 -0.35311767 -0.5942664
-0.41750598 -0.2772963 -0.41867852 -0.29759628 -0.051893197 -0.16387469 -0.2446026 -0.32690027
-0.5925991 -0.5973518 -0.28891477 -0.5167699 -0.4178649 -0.45726267 -0.5736633 -0.15944032
-0.6739873 -0.5297288 0.0009776762 -0.2933881 -0.114003785 0.11221188 -0.13232769 -0.10860419
-0.06453334 0.024180394 0.33860594 0.22587383 0.16567244 0.39468935 0.24666663 0.37015206
0.42360264 0.2633944 0.33635727 0.18225671 0.106455855 0.22013396 0.19639383 0.13206625
-0.2677154 -0.4959545 -0.18739077 -0.42486253 -0.71362615 -0.213427 -0.14854279 -0.15845472
0.026434425 -0.12153554 -0.3966241 -0.23573804 -0.2515075 -0.6758533 -0.36284584 -0.107465535
-0.23968855 -0.10267693 -0.4225452 -0.3567525 -0.060404416 -0.71103287 -0.5305632 -0.06497167
-0.46834543 -0.32291645 0.0016882049 0.14124212 0.44697782 0.13998875 0.30571184 0.77520394
0.24882072 0.16123568 0.3903061 0.091283545 0.26219597 0.3089842 0.3365839 0.38576537
0.3639425 0.45425567 0.17107412 0.08211393 0.17935865 -0.10728327 -0.45631278 -0.37902468
-0.13741842 -0.5390037 -0.47264498 0.051477954 -0.08306595 -0.0725194 0.23589115 0.2672535
0.035321914 0.39523402 0.27471453 0.012561887 -0.05586311 -0.36272857 -0.34735322 -0.06772677
-0.21815601 -0.25767815 -0.4110843 -0.8028082 -0.6636546 -0.3674137 -0.6364909 -0.43607375
