NonLinear_Regression/models/model_5_5.pth (torch, 4882 bytes, 11 tensors)

layers.0.0.weight f4 [5, 1]
0	0x3f1769bd	0.5914572
1	0x3f0d3585	0.5515979
2	0xbf9b9aa7	-1.2156571
3	0x3f0c7832	0.54870903
4	0x3f25d17a	0.6477276

layers.0.0.bias f4 [5]
0	0x3f174c48	0.5910077
1	0x3f777925	0.96669227
2	0x3e9cc872	0.30621678
3	0xbf39d904	-0.72596765
4	0x3f52114a	0.8205763

layers.1.0.weight f4 [5, 5]
0	0x3f29bca0	0.66303444
1	0x3f12262f	0.57089514
2	0xbe625627	-0.22103177
3	0xbec79c7f	-0.38986585
4	0xbe0f5683	-0.13997845
5	0xbcf06b20	-0.029347956
6	0xbdf70aa0	-0.120625734
7	0x3dbb5f38	0.09149021
8	0xbe9e55a0	-0.30924702
9	0x3e7f2440	0.24916172
10	0xbef297ad	-0.47381344
11	0x3e4d6222	0.20056966
12	0x3f02c36a	0.5107943
13	0xbe6ac729	-0.22927536
14	0xbc871651	-0.016490133
15	0x3f16a351	0.5884295
16	0xbc511216	-0.01276066
17	0xbe9f4dfd	-0.31114188
18	0xbe946736	-0.28984994
19	0xbe90d237	-0.2828538
20	0x3f0f2f1e	0.5593127
21	0x3f1f18a4	0.62146974
22	0xbe55338b	-0.20820443
23	0xbe80bf70	-0.25146055
24	0x3e02f206	0.12787637

layers.1.0.bias f4 [5]
0	0x3dfeadaf	0.12435471
1	0xbea93bf5	-0.33053556
2	0x3ec3313d	0.38123503
3	0x3e70923d	0.23493285
4	0x3d18f99c	0.03734742

layers.2.0.weight f4 [5, 5]
0	0xbe5077db	-0.20358221
1	0xbd591120	-0.052994847
2	0xbe3e9912	-0.18613079
3	0x3e563ffc	0.20922846
4	0x3e838302	0.2568589
5	0x3ef09b5d	0.46993533
6	0x3e48352c	0.19551533
7	0x3bee865c	0.0072792005
8	0xbdb1c815	-0.08680741
9	0x3e9f19c6	0.3107435
10	0x3f193346	0.5984386
11	0xbdb800f4	-0.08984557
12	0xbec90abe	-0.39266008
13	0x3ea902f6	0.33010072
14	0x3eff1378	0.4981954
15	0x3e5203a1	0.20509197
16	0xbe0f5c4a	-0.14000049
17	0xbe96d703	-0.29460916
18	0xbdfb73cc	-0.12277946
19	0x3ed10dd5	0.40830866
20	0xbfba9289	-1.4575969
21	0x3e75d77c	0.24007982
22	0x3f700f82	0.93773663
23	0xbe78ec98	-0.24309003
24	0xbfaf9348	-1.3716822

layers.2.0.bias f4 [5]
0	0xbecb317b	-0.39686188
1	0xbe688d03	-0.22710042
2	0x3e85bd67	0.26121065
3	0xbdaa65dd	-0.0832021
4	0x3c96dab6	0.018414836

layers.3.0.weight f4 [5, 5]
0	0x3c4d9040	0.012546599
1	0x3eba8cf9	0.3643568
2	0xbe0734e8	-0.13203776
3	0xbea2443b	-0.3169268
4	0xbedd7d6d	-0.43259755
5	0x3e9911b4	0.2989632
6	0xbcbf0984	-0.023319967
7	0x3ebf80d7	0.37402984
8	0x3e6463e1	0.22303726
9	0xbe9fcb00	-0.31209564
10	0x3c23cf80	0.009998202
11	0x3f10d070	0.5656805
12	0x3f0850eb	0.5324847
13	0x3e3f8e06	0.18706521
14	0x3f174bcd	0.5910004
15	0x3ccdecc0	0.025137305
16	0x3ee771ce	0.45204014
17	0x3d6af24d	0.057359982
18	0x3e22b9b3	0.15891151
19	0x3f86e612	1.0538962
20	0xbc8781b0	-0.016541332
21	0xbdd6068b	-0.10450467
22	0x3eb6044d	0.35550156
23	0x3e303030	0.17205882
24	0x3fbee082	1.4912264

layers.3.0.bias f4 [5]
0	0x3f11771f	0.5682239
1	0xbed2a2c8	-0.41139817
2	0xbeaabf37	-0.3334901
3	0x3e308b0c	0.17240542
4	0x3ec677c5	0.38763252

layers.4.0.weight f4 [5, 5]
0	0x3ec96913	0.39337978
1	0xbe8a4771	-0.2700763
2	0x3c770b4a	0.015078375
3	0xbdbae6a8	-0.091260254
4	0x3e6ab6fa	0.22921363
5	0xbf05a99a	-0.52211916
6	0x3eab2b49	0.3343146
7	0x3eb10f89	0.34582165
8	0x3e9b2538	0.30301833
9	0xbda19b48	-0.07890946
10	0xbebb2ab3	-0.36556014
11	0x3ee4d71e	0.4469537
12	0xbecb39c6	-0.39692515
13	0x3e03db7b	0.12876694
14	0x3d269492	0.04066903
15	0xbf07bc26	-0.53021467
16	0x3d34e89e	0.044167154
17	0x3e2df6fb	0.16988747
18	0x3ed3ac3d	0.41342345
19	0x3ef14510	0.47123003
20	0xbeb2f7df	-0.34954736
21	0xbd9c3bb5	-0.07628576
22	0x3e8919ff	0.26777646
23	0x3d6bf42c	0.057605907
24	0x3ef06a49	0.4695609

layers.4.0.bias f4 [5]
0	0xbed170c5	-0.4090635
1	0x3dd912e9	0.1059931
2	0xbe95f053	-0.29284915
3	0x3e864115	0.2622153
4	0xbdf9b4a7	-0.1219266

layers.5.0.weight f4 [1, 5]
0	0xbda726ca	-0.08161695
1	0x3edba7c2	0.42901427
2	0xbec3a790	-0.38213778
3	0x3e6d2a25	0.23160608
4	0x3f115c88	0.56781816
