NonLinear_Regression/models/model_2_3.pth (torch, 2780 bytes, 5 tensors)

layers.0.0.weight f4 [3, 1]
0	0xbf65e91d	-0.8980883
1	0x3e513490	0.20430207
2	0x3f0df7e4	0.55456376

layers.0.0.bias f4 [3]
0	0x3f655393	0.8958065
1	0xbf4a8a48	-0.7911725
2	0xbf473938	-0.77821684

layers.1.0.weight f4 [3, 3]
0	0xbee19d26	-0.44065207
1	0xbedc9800	-0.43084717
2	0xbee56bc9	-0.44808796
3	0x3e1e18a8	0.15439093
4	0xbef5b4a6	-0.47989386
5	0xbecc684c	-0.39923322
6	0xbf1ac44e	-0.6045579
7	0x3ec43c66	0.3832733
8	0xbc874b00	-0.016515255

layers.1.0.bias f4 [3]
0	0xbdfb4dac	-0.12270674
1	0x3ef6cba8	0.48202252
2	0x3f37025f	0.71487993

layers.2.0.weight f4 [1, 3]
0	0xbea3b2ba	-0.31972295
1	0xbe1a870e	-0.15090582
2	0x3fb505a0	1.4142342
