NonLinear_Regression/models/model_2_4.pth (torch, 2844 bytes, 5 tensors)

layers.0.0.weight f4 [4, 1]
0	0x3f60af20	0.8776722
1	0x3f4cf41c	0.8005998
2	0x3f83bad6	1.0291393
3	0xbf33eef0	-0.70286465

layers.0.0.bias f4 [4]
0	0x3ed62530	0.41825247
1	0x3f8b1960	1.0867119
2	0x3eaf6c5a	0.34262353
3	0xbf6add5a	-0.91744006

layers.1.0.weight f4 [4, 4]
0	0xbf066867	-0.52503055
1	0x3f114b7b	0.567558
2	0xbf35bc9f	-0.7099094
3	0x3df2ea08	0.11861044
4	0xbf74787f	-0.9549636
5	0x3f2833b6	0.65703905
6	0xbf0c786c	-0.5487125
7	0xbdbe64a8	-0.092965424
8	0x3f182b28	0.5944085
9	0xbed86906	-0.42267627
10	0xbea5bd72	-0.32371098
11	0x3e429bec	0.19004792
12	0x3ef124bc	0.4709834
13	0xbcc667bc	-0.024219386
14	0x3f15b610	0.5848093
15	0xbe44c6d4	-0.19216472

layers.1.0.bias f4 [4]
0	0x3f46159d	0.7737673
1	0x3dd2a7b1	0.10285891
2	0x3e953b30	0.2914672
3	0x3ef5cc34	0.48007357

layers.2.0.weight f4 [1, 4]
0	0xbf015e4c	-0.5053451
1	0xbee88bdd	-0.45419207
2	0x3f8717f6	1.0554187
3	0x3e4d2339	0.20032968
