NonLinear_Regression/models/model_3_3.pth (torch, 3416 bytes, 7 tensors)

layers.0.0.weight f4 [3, 1]
0.8135319 -0.76290345 0.03501129
00000000: a043 503f a44d 43bf 0068 0f3d

layers.0.0.bias f4 [3]
-0.8189347 -0.5644116 -0.4800111
00000000: b4a5 51bf 477d 10bf 04c4 f5be

layers.1.0.weight f4 [3, 3]
-0.49608356 1.3181243 0.41557717 -0.30223566 -0.72548175 0.40875918 -0.23916818 0.919481
-0.56582755
00000000: aafe fdbe 4cb8 a83f 88c6 d43e a2be 9abe
00000010: 2cb9 39bf e248 d13e 81e8 74be 1b63 6b3f
00000020: 13da 10bf

layers.1.0.bias f4 [3]
0.4677763 0.1400103 0.5815091
00000000: 6080 ef3e dc5e 0f3e c8dd 143f

layers.2.0.weight f4 [3, 3]
-0.0018497109 0.17061824 -0.37118584 0.24741611 -0.4051473 0.70470405 0.021186292 -0.43733886
-0.49873444
00000000: 0072 f2ba 8cb6 2e3e 120c bebe a65a 7d3e
00000010: 786f cfbe 7c67 343f e08e ad3c e1ea dfbe
00000020: 1f5a ffbe

layers.2.0.bias f4 [3]
-0.44275674 -0.007073493 -0.1261889
00000000: 03b1 e2be c3c8 e7bb aa37 01be

layers.3.0.weight f4 [1, 3]
-0.22671151 0.8051756 -0.08175081
00000000: 1027 68be fd1f 4e3f f86c a7bd
