NonLinear_Regression/models/model_5_4.pth (torch, 4882 bytes, 11 tensors)

layers.0.0.weight f4 [4, 1]
000000 c6 ec ea 3e 8b fb 9f 3f 7b 64 40 3f 56 6d 10 3f
       0.4588377 1.249864 0.7515332 0.56416833

layers.0.0.bias f4 [4]
000000 6c 91 65 3f 3c ee 16 3f 77 66 38 3f 82 a9 21 bf
       0.8967502 0.58957267 0.7203135 -0.63149273

layers.1.0.weight f4 [4, 4]
000000 f0 e8 9f be 20 3c b9 bd 26 92 82 be dc 97 e6 be
       -0.31232405 -0.09044671 -0.25502127 -0.45037735
000010 14 a6 b9 be 68 1e e6 be 20 af d6 bd 28 af 2b 3e
       -0.3625952 -0.44945073 -0.10482621 0.16766036
000020 e2 6d 70 3e 22 0d 67 bf ea fd 2f 3f 80 91 62 3d
       0.23479417 -0.90254414 0.6874682 0.05531454
000030 f3 d2 dc 3e 11 21 57 bf cf e1 0d 3f 58 ad d7 bd
       0.4312969 -0.8403483 0.5542268 -0.105311096

layers.1.0.bias f4 [4]
000000 a8 40 8e bd 6e 5f ef be 0c 99 00 3f f1 93 20 be
       -0.06945926 -0.46752495 0.5023353 -0.15681435

layers.2.0.weight f4 [4, 4]
000000 f0 e1 ed 3e 9e 86 a0 be f0 dd fb 3e 8a 1a 01 3f
       0.4646144 -0.31352705 0.49192762 0.5043112
000010 b6 b5 e9 be 7c f7 6e 3e df 09 93 3e 1f 2e 36 3f
       -0.45646447 0.23336595 0.2871847 0.71164125
000020 b0 c1 0b bd 80 72 29 bc 1c 9f 6f 3f 2b 83 06 3f
       -0.03412026 -0.01034224 0.93602157 0.52543896
000030 e0 64 b7 3c cc 39 c6 be 4a d2 b3 3e 75 ff 13 3e
       0.022386968 -0.3871597 0.35121375 0.14452918

layers.2.0.bias f4 [4]
000000 40 1a 01 bd dc 6f 8a 3e ff 19 f3 3d d8 17 95 3e
       -0.031519175 0.27038467 0.11870193 0.29119754

layers.3.0.weight f4 [4, 4]
000000 0b f1 92 3e 16 98 cf 3e 45 6d 10 be de ea 31 3e
       0.28699526 0.4054572 -0.14104183 0.17374751
000010 ad 4f 3f 3e 2f 0b 9e 3e 76 61 47 3f 0c dd 03 3f
       0.18682738 0.30867907 0.7788309 0.51509166
000020 d6 35 3d bf fb c5 18 bd 2f b0 90 be 88 05 d0 3c
       -0.7391027 -0.037298184 -0.28259417 0.025393263
000030 40 5d 85 3d a8 d4 64 be 64 da b8 be 38 0f af be
       0.06511927 -0.22346747 -0.3610412 -0.34191298

layers.3.0.bias f4 [4]
000000 ec 81 87 be 01 45 7c be 2b 48 27 3f 2a f2 88 be
       -0.2646631 -0.24635698 0.65344495 -0.26747257

layers.4.0.weight f4 [4, 4]
000000 18 84 ce be 6b 33 d8 3d d9 74 b7 3e 7c 34 bd be
       -0.40335155 0.10556682 0.35831335 -0.36954105
000010 4e 96 8b 3e 85 a3 35 3f 75 aa 2b bf 66 86 db be
       0.2726311 0.70952636 -0.6705697 -0.42875975
000020 fa c8 81 be 68 78 92 be 28 fb 3a be ba 7c 97 be
       -0.25348645 -0.28607488 -0.18259871 -0.29587346
000030 40 11 94 3e d1 fb 31 3e 38 98 65 be 2c 6b 9c be
       0.2891941 0.17381217 -0.22421348 -0.30550516

layers.4.0.bias f4 [4]
000000 b8 f3 7d be 7a 8d 43 3e 1c e0 0d be 4f 43 ff be
       -0.24800003 0.19096938 -0.13855022 -0.4985604

layers.5.0.weight f4 [1, 4]
000000 d3 7c 2a 3d 89 db 63 bf a0 5d 50 bd 8b ff 40 be
       0.041622948 -0.8900686 -0.050870538 -0.18847482
