NonLinear_Regression/models/model_3_2.pth (torch, 3416 bytes, 7 tensors)

layers.0.0.weight f4 [2, 1]
1.1652908 -1.2992332
00000000: 4028 953f 464d a6bf

layers.0.0.bias f4 [2]
0.28265423 0.4320184
00000000: 0eb8 903e 8431 dd3e

layers.1.0.weight f4 [2, 2]
1.2616678 0.13582975 -0.2645201 1.1822582
00000000: 557e a13f f416 0b3e 2e6f 87be 3d54 973f

layers.1.0.bias f4 [2]
0.8270957 0.37695277
00000000: 8bbc 533f f4ff c03e

layers.2.0.weight f4 [2, 2]
0.65676844 -1.0577867 0.27697986 -0.3799668
00000000: fa21 283f 8e65 87bf 4ed0 8d3e 028b c2be

layers.2.0.bias f4 [2]
0.87573296 -0.7436621
00000000: 0930 603f a460 3ebf

layers.3.0.weight f4 [1, 2]
0.342121 -0.51175946
00000000: 7c2a af3e ab02 03bf
