NonLinear_Regression/models/model_4_4.pth (torch, 4180 bytes, 9 tensors)

layers.0.0.weight f4 [4, 1]
000000 8a 5a 8f bf a6 5a 8d 3f b8 e2 28 3f 8d c1 85 be
       -1.1199505 1.1043289 0.65970945 -0.2612423

layers.0.0.bias f4 [4]
000000 9b 73 8e 3e af 47 89 be 8d 9c a8 3e 16 c8 43 3f
       0.27822575 -0.26812503 0.3293194 0.7647718

layers.1.0.weight f4 [4, 4]
000000 66 46 39 bf 0e a2 e4 3e 7e e4 03 3f 76 a5 f6 3d
       -0.72373044 0.44654888 0.51520526 0.12043278
000010 f9 88 65 bf e7 90 dc 3d d8 ba 60 bb 7a 49 af bd
       -0.8966213 0.107698254 -0.0034291055 -0.085589364
000020 38 37 94 3d e4 7b 9f 3e d2 b1 fc be 20 80 5e be
       0.07237095 0.3114921 -0.49354416 -0.21728563
000030 27 25 3e 3e f4 06 e2 be 60 e4 15 be 7b d9 0f 3f
       0.1856886 -0.4414593 -0.146379 0.56191224

layers.1.0.bias f4 [4]
000000 41 7c 9f 3e af a2 22 3f 80 ad c2 bd 8c 69 d5 3e
       0.31149486 0.63529485 -0.09505749 0.41682088

layers.2.0.weight f4 [4, 4]
000000 00 2d a7 3b 1c 0c 17 3e c6 c1 e0 3e 30 05 d5 bd
       0.0051018 0.14750713 0.43897837 -0.1040138
000010 3c d4 cb 3c a3 1b 66 3f 20 1e 82 bd b5 f4 8f bd
       0.024881475 0.8988592 -0.06353402 -0.07029096
000020 20 40 0b 3f 6c 18 06 3f 10 59 1e be cb 95 a0 be
       0.5439472 0.52381015 -0.15463662 -0.31364283
000030 b1 1e 5e be e8 07 2f bd e8 bf 50 be 93 51 27 3f
       -0.21691395 -0.04273215 -0.20385706 0.6535885

layers.2.0.bias f4 [4]
000000 ec 03 f1 be 89 01 0f 3f 50 5c 9a 3e ec a1 8a 3e
       -0.47073305 0.5586172 0.30148554 0.27076662

layers.3.0.weight f4 [4, 4]
000000 f2 44 ef be 8d 3b c4 3a b5 92 18 3f 95 03 6d 3e
       -0.4673229 0.0014971361 0.5959886 0.23145898
000010 a8 a2 a6 3d a3 50 a5 3e 43 34 fc 3e 03 0e 14 bf
       0.08136493 0.32288083 0.49258623 -0.5783388
000020 34 0c 89 3e c2 08 3d 3d 88 10 12 be 21 b5 ce 3e
       0.26767123 0.04615093 -0.14264119 0.40372565
000030 66 17 e1 be 66 ea ea 3d 04 73 b0 be cb ef 88 3d
       -0.43963164 0.11470489 -0.3446275 0.06686362

layers.3.0.bias f4 [4]
000000 af 11 f2 bd 48 22 a2 3e 14 47 09 3f ed 35 1b be
       -0.11819779 0.3166678 0.5362408 -0.1515729

layers.4.0.weight f4 [1, 4]
000000 fd d5 d7 3e 07 73 ef 3e c1 a7 82 be ae f4 dc bd
       0.42155448 0.46767446 -0.2551861 -0.107888564
