NonLinear_Regression/models/model_4_3.pth (torch, 3988 bytes, 9 tensors)

layers.0.0.weight f4 [3, 1]
00000000: feaa 923f fb41 14bf 5379 503f
1.1458433 -0.5791318 0.81435126

layers.0.0.bias f4 [3]
00000000: 7062 d53e 3485 debc b6ba 4c3f
0.41676664 -0.027163126 0.799724

layers.1.0.weight f4 [3, 3]
00000000: e294 133d c28b a7bf 9311 b33f 3bce 373f
00000010: a2a7 06bf c16d 0f3f 0535 b33e 532c 06bf
00000020: e2a8 1b3e
0.036030658 -1.3089526 1.3989738 0.7179906 -0.5259954 0.56026846 0.35001388 -0.52411383
0.15201142

layers.1.0.bias f4 [3]
00000000: e037 333f baed b4bc 3d03 2c3f
0.70007133 -0.022086013 0.6719244

layers.2.0.weight f4 [3, 3]
00000000: 076b a33e 1e4b 56bf 6737 b9bd fd85 e73e
00000010: 41e0 273f 6414 13be 4150 893f fe86 f2be
00000020: 16c5 f23e
0.31917593 -0.8370837 -0.0904377 0.45219412 0.6557656 -0.14363247 1.0727617 -0.47368616
0.4741599

layers.2.0.bias f4 [3]
00000000: 2b78 9b3e e1f8 3cbe 81c1 613e
0.30365118 -0.18454315 0.22046472

layers.3.0.weight f4 [3, 3]
00000000: cb92 633d 56b5 76be ad50 4dbf 1d95 37bf
00000010: 1440 f73d a20e a03e 609b 8fbc 9455 4abf
00000020: 265e 4f3f
0.055559915 -0.24092612 -0.80201226 -0.71711904 0.12072769 0.31261164 -0.017530143 -0.7903683
0.81003034

layers.3.0.bias f4 [3]
00000000: 65c1 2b3f 1580 fd3e 5370 e2bd
0.6709197 0.4951178 -0.110565804

layers.4.0.weight f4 [1, 3]
00000000: 02b0 ad3f e3f3 333f fa92 79bf
1.3569338 0.70294017 -0.97489893
