NonLinear_Regression/models/model_2_5.pth (torch, 2844 bytes, 5 tensors)

layers.0.0.weight f4 [5, 1]
0	0xbd626720	-0.05527413
1	0x3f0fd8a7	0.5618996
2	0xbf96374b	-1.1735624
3	0x3e228a28	0.15873015
4	0x3f4c7e14	0.7987988

layers.0.0.bias f4 [5]
0	0xbf5b3780	-0.8563156
1	0x3e9da913	0.30793056
2	0x3e16c00f	0.14721702
3	0xbe8b3b1c	-0.27193534
4	0x3ece2baa	0.40267688

layers.1.0.weight f4 [5, 5]
0	0xbdecf0b4	-0.11569348
1	0x3f0e268c	0.5552757
2	0xbe658606	-0.22414407
3	0x3de03c10	0.10948956
4	0x3f42d771	0.7610999
5	0x3e987ea0	0.29784107
6	0xbf0902d4	-0.5351994
7	0xbed5157c	-0.41617954
8	0x3d451ef8	0.048125237
9	0x3da888a6	0.082291886
10	0x3ed5f05e	0.41784948
11	0xbeb6daa6	-0.3571369
12	0xbddce200	-0.107852936
13	0xbec7991a	-0.38983995
14	0xbd8568d3	-0.06514134
15	0xbe62dce0	-0.2215457
16	0xbf0dbab6	-0.55363023
17	0xbef0e6ea	-0.47051173
18	0xbe1582d8	-0.14600694
19	0xbf3a3ace	-0.7274598
20	0x3e85ae04	0.26109326
21	0x3f01a037	0.50635093
22	0x3f68aca3	0.9088842
23	0x3e7145b0	0.2356174
24	0x3efe45c7	0.4966261

layers.1.0.bias f4 [5]
0	0xbdccd59e	-0.10001682
1	0x3da670f6	0.08127014
2	0x3e6a163f	0.22860049
3	0x3f19fec5	0.6015437
4	0x3e61c1f7	0.22046648

layers.2.0.weight f4 [1, 5]
0	0x3edb6116	0.42847508
1	0xbea30f8f	-0.31847808
2	0xbe1b3b60	-0.15159369
3	0xbfc559f0	-1.5418072
4	0x3e8dde8a	0.27708846
