NonLinear_Regression/models/model_3_4.pth (torch, 3544 bytes, 7 tensors)

layers.0.0.weight f4 [4, 1]
0.3960644 0.39921942 0.6049921 -0.77408373
00000000: f4c8 ca3e 7d66 cc3e c3e0 1a3f 5a2a 46bf

layers.0.0.bias f4 [4]
-0.56735444 -0.009070441 0.93925726 -0.8402928
00000000: 243e 11bf 309c 14bc 2a73 703f 6e1d 57bf

layers.1.0.weight f4 [4, 4]
-0.27046221 -0.14680862 -0.056491125 0.3883946 0.4819168 -0.33060533 -0.35345805 -0.24408549
0.0891273 -0.38287657 -0.027151465 0.3050297 0.10739136 -0.23260243 0.3887809 -0.34047407
00000000: 067a 8abe 0055 16be 3d63 67bd a8db c63e
00000010: ccbd f63e 1a45 a9be 74f8 b4be 8cf1 79be
00000020: 6088 b63d 6608 c4be c06c debc da2c 9c3e
00000030: 00f0 db3d 552f 6ebe 4a0e c73e 9e52 aebe

layers.1.0.bias f4 [4]
0.38516757 -0.3839863 -0.27432215 0.46662873
00000000: af34 c53e da99 c4be f473 8cbe f6e9 ee3e

layers.2.0.weight f4 [4, 4]
0.0051726103 -0.14359099 -0.17936939 0.40844327 -0.4975214 -0.32476467 -0.15004647 -0.37601262
-0.18059236 -0.28498942 -0.029205143 -0.3880368 0.12651359 0.35510916 0.036586285 0.23591141
00000000: 007f a93b 8409 13be 9cac 37be 7a1f d13e
00000010: 20bb febe 8e47 a6be c8a5 19be ba84 c0be
00000020: 34ed 38be 22ea 91be a03f efbc c2ac c6be
00000030: c78c 013e ded0 b53e 80db 153d c392 713e

layers.2.0.bias f4 [4]
-0.45145208 0.13834327 -0.008489549 -0.28631443
00000000: ba24 e7be dca9 0d3e c017 0bbc ce97 92be

layers.3.0.weight f4 [1, 4]
-0.13836163 0.0917353 0.21997082 -0.4682764
00000000: acae 0dbe b8df bb3d 0840 613e edc1 efbe
