NonLinear_Regression/models/model_4_5.pth (torch, 4180 bytes, 9 tensors)

layers.0.0.weight f4 [5, 1]
-1.0249914 -0.6778645 -0.51750416 -0.42402688 0.549314
00000000: eb32 83bf 8788 2dbf 277b 04bf 0d1a d9be
00000010: d89f 0c3f

layers.0.0.bias f4 [5]
-0.22419046 0.18645087 0.5155718 0.17795968 0.5497549
00000000: 2f92 65be faec 3e3e 83fc 033f 103b 363e
00000010: bdbc 0c3f

layers.1.0.weight f4 [5, 5]
0.24430765 0.53364605 0.46168873 -0.21829934 -0.40023705 -0.38947806 0.49337423 0.58176374
0.3920586 -0.23631793 0.6931213 0.5579114 0.09158043 0.52227765 -1.5022798 -0.23362161
0.27067488 -0.03428042 -0.24993755 -0.033820063 -0.14244977 -0.18258804 0.14431769 0.35396934
-0.123292625
00000000: c92b 7a3e 079d 083f 7762 ec3e dd89 5fbe
00000010: dfeb ccbe ab69 c7be 8c9b fc3e 78ee 143f
00000020: e8bb c83e 54fd 71be 6670 313f 48d3 0e3f
00000030: 858e bb3d fdb3 053f b44a c0bf 813a 6fbe
00000040: e695 8a3e a069 0cbd a1ef 7fbe e886 0abd
00000050: 5ade 11be 5cf8 3abe 04c8 133e 783b b53e
00000060: d880 fcbd

layers.1.0.bias f4 [5]
0.43927664 0.36663973 -0.6033527 -0.027280718 -0.43397328
00000000: dee8 e03e 34b8 bb3e 5375 1abf d07b dfbc
00000010: bf31 debe

layers.2.0.weight f4 [5, 5]
-0.21184567 0.73620856 -1.2004561 0.17914253 0.10427058 0.3418771 -0.023354463 0.6356867
-0.098676056 -0.38540754 0.49813017 0.36692798 -1.1694558 -0.012681872 0.2608009 0.7714613
0.5069829 -1.3046776 -0.26787817 0.32244664 -0.10249609 0.060500503 -0.09385288 -0.3373887
-0.08336815
00000000: 12ee 58be 2a78 3c3f 8ca8 99bf 2471 373e
00000010: d08b d53d 840a af3e dc51 bfbc 5dbc 223f
00000020: ac16 cabd 2354 c5be eb0a ff3e fcdd bb3e
00000030: bab0 95bf a0c7 4fbc b287 853e 7d7e 453f
00000040: a2c9 013f adff a6bf 5427 89be ba17 a53e
00000050: 78e9 d1bd 60cf 773d f035 c0bd 36be acbe
00000060: ecbc aabd

layers.2.0.bias f4 [5]
0.7815279 -0.28392327 -0.040419217 -0.055496056 -0.22785027
00000000: 3612 483f 645e 91be 9f8e 25bd d54f 63bd
00000010: 9551 69be

layers.3.0.weight f4 [5, 5]
0.4577694 0.4740234 -0.453159 -0.6057956 0.049482077 -0.27663 0.85567915 -0.6836862
-0.34044743 0.37638128 -0.04134634 -0.3158723 -0.34409982 -0.34461844 -0.09437153 0.69297683
-1.3934884 0.75059766 0.76940477 0.03879413 -0.3808523 -0.29643792 -0.24050453 -0.023833461
0.0785321
00000000: c060 ea3e 32b3 f23e 7504 e8be 6c15 1bbf
00000010: b8ad 4a3d 73a2 8dbe ca0d 5b3f 0f06 2fbf
00000020: 204f aebe 0cb5 c03e c85a 29bd 04ba a1be
00000030: da2d b0be d471 b0be dc45 c1bd ee66 313f
00000040: d45d b2bf 2b27 403f b6f7 443f 98e6 1e3d
00000050: 13ff c2be b6c6 97be d246 76be 643e c3bc
00000060: 70d5 a03d

layers.3.0.bias f4 [5]
0.31419572 0.37916487 -0.016396016 0.35938275 0.21043748
00000000: 43de a03e e621 c23e f050 86bc 0401 b83e
00000010: ec7c 573e

layers.4.0.weight f4 [1, 5]
0.7816207 0.67769045 -0.04111913 -0.24166027 0.09651887
00000000: 4b18 483f 1f7d 2d3f 886c 28bd ca75 77be
00000010: afab c53d
