NonLinear_Regression/models/model_4_2.pth (torch, 3988 bytes, 9 tensors)

layers.0.0.weight f4 [2, 1]
00000000: 0e69 773f 0042 88bd
0.96644676 -0.066532135

layers.0.0.bias f4 [2]
00000000: 44f5 ba3e 38b7 213f
0.36515248 0.63170195

layers.1.0.weight f4 [2, 2]
00000000: 3060 5b3e 803e 82bc 1ca2 49be 6316 193f
0.21423411 -0.015898943 -0.19690746 0.59799784

layers.1.0.bias f4 [2]
00000000: 10e8 91be a41f 17bf
-0.28497362 -0.59032655

layers.2.0.weight f4 [2, 2]
00000000: 44a8 473e 800c 40bd 7d54 023f 902c ea3d
0.19497782 -0.04688692 0.5091017 0.11434281

layers.2.0.bias f4 [2]
00000000: e5a6 8cbe e6d3 513e
-0.2747108 0.20490989

layers.3.0.weight f4 [2, 2]
00000000: c0e9 05bf e77d 263f 9fc8 013f 352e ecbe
-0.523098 0.6503586 0.5069675 -0.46129003

layers.3.0.bias f4 [2]
00000000: f953 c9be fd6a ae3d
-0.3932188 0.085165

layers.4.0.weight f4 [1, 2]
00000000: 54f4 46be f159 e5be
-0.19429141 -0.44795182
