NonLinear_Regression/models/model_5_2.pth (torch, 4626 bytes, 11 tensors)

layers.0.0.weight f4 [2, 1]
0.8980973 -0.048171043
00000000: b4e9 653f 004f 45bd

layers.0.0.bias f4 [2]
0.62281513 -0.29999518
00000000: d070 1f3f f898 99be

layers.1.0.weight f4 [2, 2]
-0.2453196 -0.26612246 -0.1911689 -0.29026905
00000000: 1035 7bbe 3441 88be c8c1 43be 259e 94be

layers.1.0.bias f4 [2]
0.08752334 0.32756096
00000000: 703f b33d 12b6 a73e

layers.2.0.weight f4 [2, 2]
-0.5602291 -0.35992026 0.050954342 -0.50228786
00000000: 2d6b 0fbf 7847 b8be 80b5 503d f095 00bf

layers.2.0.bias f4 [2]
-0.504221 -0.009149492
00000000: a114 01bf c0e7 15bc

layers.3.0.weight f4 [2, 2]
0.41376013 -0.097681165 0.47978693 -0.3870747
00000000: 5ed8 d33e 100d c8bd a2a6 f53e a82e c6be

layers.3.0.bias f4 [2]
0.35279545 -0.3068169
00000000: 9ba1 b43e 1b17 9dbe

layers.4.0.weight f4 [2, 2]
-0.29476678 0.6368492 0.31441 0.19222891
00000000: aceb 96be 8d08 233f 59fa a03e a8d7 443e

layers.4.0.bias f4 [2]
-0.14688462 0.8340797
00000000: ec68 16be 3f86 553f

layers.5.0.weight f4 [1, 2]
0.53259915 0.32773533
00000000: 6b58 083f edcc a73e
