NonLinear_Regression/models/model_3_5.pth (torch, 3544 bytes, 7 tensors)

layers.0.0.weight f4 [5, 1]
0	0x3e1c9378	0.1529063
1	0x3f104634	0.5635712
2	0x3e63f718	0.22262228
3	0xbf93d563	-1.1549495
4	0xbfa1a6e2	-1.2629054

layers.0.0.bias f4 [5]
0	0xbf17297a	-0.59047663
1	0x3f4ed0e1	0.80787474
2	0xbf465f94	-0.7748959
3	0xbf792e9e	-0.9733676
4	0xbf3d33d4	-0.7390721

layers.1.0.weight f4 [5, 5]
0	0xbd9feda8	-0.07809001
1	0x3eeca89c	0.4622239
2	0xbd443110	-0.047898352
3	0x3fa5769d	1.2926823
4	0x3f7b36d2	0.98130524
5	0x3e2db84c	0.16964835
6	0x3ee29f14	0.44261992
7	0xbe4a49f0	-0.19754767
8	0x3f4e8e9f	0.8068637
9	0x3f25411a	0.6455246
10	0xbed13552	-0.40860993
11	0x3ef6779b	0.48138127
12	0x3ddd8570	0.10816467
13	0x3f60789b	0.8768403
14	0x3f065ab7	0.5248217
15	0xbc6317c0	-0.013860643
16	0xbceafaae	-0.028683987
17	0x3ca2b3d0	0.019861132
18	0x3edf1879	0.4357336
19	0x3f8ddeb9	1.1083595
20	0xbc6baa40	-0.0143838525
21	0x3ef3b660	0.4760008
22	0xbd3c5f00	-0.045989037
23	0x3f0842c2	0.53226864
24	0x3f8d7749	1.1052028

layers.1.0.bias f4 [5]
0	0xbe0d05e0	-0.13771772
1	0xbe8959d7	-0.26826355
2	0xbe9098c8	-0.28241563
3	0x3e1007e5	0.14065512
4	0x3ea4701c	0.32116783

layers.2.0.weight f4 [5, 5]
0	0x3e21a68a	0.15786186
1	0xbed15c1a	-0.4089058
2	0xbf05882a	-0.52160895
3	0xbe1dbfc9	-0.15405191
4	0x3e185e58	0.1487974
5	0xbed7e2d9	-0.4216526
6	0xbf1752f7	-0.5911097
7	0xbf350529	-0.70711
8	0xbcef473d	-0.029208774
9	0x3e7a10a0	0.24420404
10	0x3e0379cf	0.12839435
11	0xbe723568	-0.23653185
12	0xbc5bd3bc	-0.013417181
13	0xbcd21ebb	-0.025649419
14	0xbec109c8	-0.37702775
15	0xbc56cf00	-0.013110876
16	0x3e6ee3f8	0.2332915
17	0xbb4c2900	-0.0031152368
18	0xbe8b48b6	-0.27203912
19	0xbe882068	-0.26587224
20	0x3f4e0b3d	0.804859
21	0x3eaccbf8	0.33749366
22	0x3f5e99ec	0.86953616
23	0x3d79826e	0.060915403
24	0x3f0475ee	0.51742446

layers.2.0.bias f4 [5]
0	0x3e0443aa	0.12916437
1	0x3ee2f97f	0.44330975
2	0x3eda392e	0.4262175
3	0xbe896e5b	-0.26842007
4	0xbd9e539e	-0.077307925

layers.3.0.weight f4 [1, 5]
0	0xbf12149d	-0.57062703
1	0xbf17c9f9	-0.5929256
2	0xbe717cce	-0.23582765
3	0x3ca81200	0.020516396
4	0x3f323f91	0.69628245
