NonLinear_Regression/models/model_5_3.pth (torch, 4626 bytes, 11 tensors)

layers.0.0.weight f4 [3, 1]
0.57280004 -0.16334796 -0.76907706
00000000: 06a3 123f b044 27be 3ce2 44bf

layers.0.0.bias f4 [3]
0.65314925 0.052315354 -0.11741984
00000000: ca34 273f a048 563d d079 f0bd

layers.1.0.weight f4 [3, 3]
-0.3791623 -0.08107886 -0.5015601 -0.23381591 0.15206826 0.06031406 0.46468484 0.02711904
-0.47482654
00000000: 9021 c2be ac0c a6bd 3e66 00bf 706d 6fbe
00000010: c8b7 1b3e e00b 773d 2ceb ed3e c028 de3c
00000020: 771c f3be

layers.1.0.bias f4 [3]
0.010839522 0.312191 0.40792257
00000000: 4098 313c 80d7 9f3e 3adb d03e

layers.2.0.weight f4 [3, 3]
-0.33916655 0.4226287 -0.09980354 -0.01004225 0.29210436 0.48939288 -0.055726826 -0.021281838
0.4610566
00000000: 3da7 adbe ca62 d83e cc65 ccbd 4088 24bc
00000010: b48e 953e b491 fa3e d041 64bd 4057 aebc
00000020: 9c0f ec3e

layers.2.0.bias f4 [3]
0.41074312 0.12185502 0.24233568
00000000: ec4c d23e 208f f93d d826 783e

layers.3.0.weight f4 [3, 3]
-0.49989706 -0.5499237 -0.12719011 -0.5366368 -0.15175793 -0.12972349 0.094768345 -0.2870767
-0.05340749
00000000: 82f2 ffbe cdc7 0cbf 203e 02be 0861 09bf
00000010: 6e66 1bbe 3cd6 04be e815 c23d b8fb 92be
00000020: d0c1 5abd

layers.3.0.bias f4 [3]
-0.3312779 -0.1287351 -0.008349419
00000000: 429d a9be 22d3 03be 00cc 08bc

layers.4.0.weight f4 [3, 3]
-0.3500859 -0.40079162 -0.015885472 -0.5087388 0.35862124 0.19878525 0.42185146 0.23529214
0.12373197
00000000: 763e b3be 8f34 cdbe 4022 82bc b53c 02bf
00000010: 349d b73e 5c8e 4b3e eafc d73e 6cf0 703e
00000020: 3067 fd3d

layers.4.0.bias f4 [3]
0.5151845 0.42456988 0.33721304
00000000: 22e3 033f 3961 d93e 30a7 ac3e

layers.5.0.weight f4 [1, 3]
0.5047808 -0.2705725 0.6606733
00000000: 5139 013f 7b88 8abe e321 293f
